data.pth (torch, 223658 bytes, 6 tensors)

l1.weight f4 [128, 261]
0	0x3e89f693	0.26945934
1	0x3c218c8c	0.009860169
2	0x3e6a043b	0.22853176
3	0x3d14ce7a	0.036329724
4	0x3e4dd023	0.20098929
5	0xbe0825b5	-0.13295634
6	0x3e42b334	0.19013673
7	0xbcf2cd76	-0.029638987
8	0x3f8187a7	1.0119523
9	0xbd82ddba	-0.06389947
10	0xbd9bf901	-0.07615853
11	0xbe24a055	-0.16076787
12	0xbee485b3	-0.44633254
13	0x3bf1ef1a	0.0073832395
14	0x3e11008e	0.14160368
15	0xbe7cff4c	-0.24706763
16	0xbc3b38d5	-0.011427124
17	0x3d3b5682	0.045736797
18	0x3e86c26a	0.263202
19	0x3d0a9706	0.033835433
20	0x3ec718ca	0.388861
21	0x3c6a2c3b	0.014292772
22	0x3ea99bc0	0.3312664
23	0x3ea39fdb	0.31957898
24	0x3c586daf	0.013209744
25	0x3d7d4950	0.061837494
26	0xbd46507b	-0.048416596
27	0x3f84b261	1.0366937
28	0xbda5c130	-0.08093488
29	0x3ef698e9	0.48163536
30	0x3ea4d179	0.32191065
31	0x3e9b8a03	0.30378732
32	0x3e0da045	0.13830669
33	0x3e9b7c9f	0.30368516
34	0x3e059977	0.13046823
35	0x3e384032	0.17993239
36	0x3d4110d2	0.04713518
37	0xbe2a58e0	-0.16635466
38	0x3f44d513	0.76887625
39	0x3e33505b	0.17511122
40	0xbdb6e0c8	-0.08929592
41	0x3d9a86ed	0.07545266
42	0xbda00206	-0.07812886
43	0x3e375495	0.17903359
44	0x3f757899	0.9588714
45	0xbceeff63	-0.029174512
46	0x3f36e1b8	0.7143817
47	0xbe38bbcb	-0.18040387
48	0x3de4c36c	0.11170086
49	0x3cf54b0e	0.029943015
50	0x3e836459	0.25662497
51	0xbe36e912	-0.17862347
52	0x3f3aeb22	0.73015034
53	0x3e1235e4	0.1427837
54	0xbe106db7	-0.14104353
55	0xbc81074c	-0.01575055
56	0x3c76416a	0.015030244
57	0x3e00147e	0.12507817
58	0x3f159a7d	0.58438855
59	0xbbdc4d91	-0.006723114
60	0xbe3fd4e3	-0.18733554
61	0x3e9f2609	0.31083706
62	0x3f47b8b5	0.78016216
63	0xbd47081c	-0.048591718
64	0x3d33412a	0.043763317
65	0x3e48f682	0.19625285
66	0xbc86676e	-0.016406741
67	0xbda1b8f0	-0.07896602
68	0x3d73e87f	0.059547897
69	0xbc2cdc05	-0.010550504
70	0x3e3c8b20	0.18412447
71	0x3d469c22	0.048488744
72	0x3f0021c5	0.5005153
73	0x3c226f04	0.0099141635
74	0x3e037bdc	0.12840217
75	0x3e94c79a	0.29058534
76	0x3ec87b09	0.39156368
77	0x3d90b253	0.07065263
78	0x3b86ad8e	0.004110045
79	0x3ea434e9	0.32071617
80	0xbc98d2de	-0.018655237
81	0x3df79953	0.12089791
82	0xbc581f39	-0.013191038
83	0xbd20c1e6	-0.039247416
84	0x3f6173fd	0.8806761
85	0x3ee99c82	0.45627218
86	0x3cb0fc7f	0.021604775
87	0xbe8eab4a	-0.27865058
88	0xbdba02b4	-0.09082547
89	0x3e78e717	0.24306904
90	0x3d473bda	0.048641063
91	0xbd1b2674	-0.03787847
92	0x3dc50ab0	0.09621179
93	0xbce31ef8	-0.027724728
94	0xbe06761a	-0.1313099
95	0x3e8cfd12	0.27536827
96	0x3dc35c50	0.095390916
97	0x3dbbdf37	0.09173434
98	0x3d13f66e	0.036123686
99	0x3e7be0a6	0.24597415
100	0x3d7d56f6	0.06185051
101	0x3f2f487c	0.6846998
102	0x3efaf283	0.49013147
103	0x3eb68005	0.35644546
104	0x3cbab0f9	0.022789465
105	0x3ee3e26d	0.44508687
106	0x3f0673c9	0.52520424
107	0xbcf95fa7	-0.030441118
108	0x38f5dbfc	0.00011723486
109	0xbdd5e9df	-0.10444998
110	0xbe3c6b86	-0.18400392
111	0x3d25d968	0.040490538
112	0xbd9e934c	-0.077429384
113	0x3ed565db	0.41679272
114	0xbe76dc6e	-0.24107525
115	0xbd39d4cd	-0.04536896
116	0x3e322308	0.17396176
117	0xbdb9b2b9	-0.09067292
118	0xbcf072fe	-0.029351708
119	0x3dd8e7fb	0.10591122
120	0x3c7c2ef7	0.015392057
121	0xbe1c9cb5	-0.15294154
122	0x3e2ec13d	0.17065902
123	0xbcab44df	-0.020906864
124	0xbd99ea88	-0.075154364
125	0x3ec44ef1	0.38341478
126	0xbd827947	-0.06370788
127	0x3fb368d8	1.4016371
128	0xbdcd29c8	-0.10017735
129	0xbe2983ad	-0.16554137
130	0x3d99ec38	0.07515758
131	0xbe15138f	-0.14558242
132	0x3e4b96b1	0.19881703
133	0xbdbf0436	-0.09326975
134	0xbe3fb024	-0.18719536
135	0x3f41bb15	0.7567609
136	0x3e197f76	0.14990029
137	0xbd047d00	-0.03234577
138	0x3dfd0e82	0.12356283
139	0xbe040da4	-0.12895828
140	0xbe16e7bf	-0.14736842
141	0xbe2675ed	-0.16255923
142	0x3d78f575	0.06078096
143	0xbcefebf2	-0.029287312
144	0xbde6be27	-0.112667374
145	0x3eb23ef1	0.34813645
146	0xbd5e03fc	-0.05420302
147	0xbd37fb4b	-0.044917386
148	0xbe8fc0b3	-0.28076705
149	0x3ed0f259	0.40809897
150	0xbd608066	-0.05480995
151	0xbe15fd6e	-0.14647457
152	0xbd804c63	-0.062645696
153	0x3eb2030e	0.34767956
154	0x3edb636b	0.42849287
155	0x3e2ba0ef	0.1676061
156	0x3d39f10a	0.04539589
157	0x3cae5ef4	0.021285512
158	0x3bb47e4d	0.0055082203
159	0xbdd53aa3	-0.10411575
160	0x3efc7fc2	0.4931622
161	0x3e0323f2	0.12806681
162	0xbcd6aac7	-0.02620448
163	0xbd0c0642	-0.034185655
164	0xbd0ef42d	-0.034900833
165	0xbd62da7d	-0.055384148
166	0x3e26fa73	0.16306476
167	0x3da1902e	0.07888828
168	0x3e34ad79	0.176443
169	0xbe47ae96	-0.19500193
170	0xbd9e26cb	-0.07722243
171	0x3dbf4005	0.09338383
172	0x3e923c8c	0.2856182
173	0x3f90a977	1.1301717
174	0x3f88f82f	1.070074
175	0xbd10a9b6	-0.0353181
176	0x3f5eadde	0.8698405
177	0xbbdf32d4	-0.006811479
178	0x3f0bf929	0.54677063
179	0x3db61b63	0.08891942
180	0x3effaaf8	0.49935126
181	0x3d0ea402	0.03482438
182	0x3ce25289	0.027627246
183	0xbbdb5ae8	-0.0066941865
184	0xbe37936e	-0.17927334
185	0x3e0c1141	0.13678457
186	0xbd75c3ce	-0.060001187
187	0x3db9e2f1	0.09076489
188	0x3e00b6c3	0.12569718
189	0x3c21b569	0.009869912
190	0x3dca8e3d	0.09890411
191	0x3d16c53d	0.036809195
192	0x3da778bf	0.08177327
193	0xbd6b9407	-0.057514217
194	0x3f046a83	0.51725024
195	0x3d68a424	0.05679716
196	0x3e844299	0.2583206
197	0xbda9eca9	-0.082970925
198	0xbe258190	-0.16162705
199	0x3d840436	0.06446116
200	0x3f96972e	1.1764886
201	0x3ebb8e67	0.36632082
202	0x3e16c9d5	0.1472543
203	0x3c9a476e	0.018832888
204	0x3d17442c	0.03693025
205	0xbde89e19	-0.1135828
206	0x3bddf828	0.0067739673
207	0x3d64aa06	0.05582621
208	0x3cd7d562	0.026346866
209	0x3f13abe2	0.5768415
210	0x3e0df274	0.1386202
211	0x3defc37f	0.1170721
212	0x3f6ff45c	0.9373224
213	0xbcf3c220	-0.029755652
214	0x3ea0ed80	0.31431198
215	0x3c76aea8	0.01505629
216	0x3d4f1d40	0.050565004
217	0x3e0d9b2c	0.13828725
218	0xbde08587	-0.10962968
219	0x3d0b93dd	0.03407656
220	0xbe98eeb9	-0.2986963
221	0x3f6149ab	0.88003033
222	0x3e25d9fa	0.16196433
223	0x3efdc788	0.49566293
224	0x3e0304fe	0.12794873
225	0xbe1c0a28	-0.1523825
226	0x3d8aed28	0.06783515
227	0x3d8cc959	0.068743415
228	0x3c91477e	0.017734285
229	0xbe08567d	-0.13314243
230	0x3c89916e	0.01679298
231	0x3e0c78e5	0.13717993
232	0x3d223d99	0.039609525
233	0xba2447d6	-0.0006266808
234	0x3e5a621a	0.21326485
235	0x3f4717bc	0.7777059
236	0xbd8059d6	-0.06267135
237	0x3db748f2	0.0894946
238	0x3eff2d27	0.49839136
239	0x3cdaa2d1	0.026688965
240	0x3dddcd05	0.1083012
241	0x3c6ca2c4	0.014443103
242	0xbd90be05	-0.07067493
243	0x3c355c23	0.01106933
244	0xbba7317b	-0.005102334
245	0x3e078ad4	0.13236552
246	0x3e18e8de	0.14932582
247	0x3e1244c3	0.14284043
248	0x3cb0d55c	0.021586113
249	0x3de05871	0.10954369
250	0x3faf67b2	1.370352
251	0x3dbee0ef	0.093202464
252	0xbe0d7669	-0.13814701
253	0xbe456ce9	-0.19279827
254	0x3ec8256b	0.39091048
255	0x3e275d8b	0.16344278

l1.bias f4 [128]
0	0x3d4f6de6	0.050641917
1	0x3d423de9	0.047422323
2	0x3e3d5492	0.18489292
3	0x3d66a3cf	0.056308564
4	0xbdb92b1f	-0.09041428
5	0x3c08adbc	0.008342203
6	0x3dc26ab3	0.094930075
7	0x3e233dda	0.15941563
8	0x3e22d76c	0.1590249
9	0xbcfafcf4	-0.030638196
10	0x3d50e68c	0.051001117
11	0xbd9f4aba	-0.07777925
12	0xbd5572ba	-0.052111365
13	0x3e26617f	0.1624813
14	0xbcfad6d6	-0.03062002
15	0xbaff9216	-0.0019498493
16	0x3d359c15	0.044338305
17	0x3d9d115c	0.07669327
18	0xbd33c7e3	-0.0438918
19	0x3d2718c4	0.040795103
20	0x3e00f242	0.12592414
21	0xbd114bc0	-0.03547263
22	0x3e31733f	0.17329119
23	0x3dbed8a2	0.09318663
24	0x3dcce416	0.100044414
25	0x3dda3bd3	0.10655942
26	0x3e649e72	0.22326067
27	0x3d33b825	0.043876786
28	0x3d9138b7	0.070908956
29	0xbd0e259b	-0.034703832
30	0x3deea1fb	0.11651989
31	0xbdb2b85d	-0.08726571
32	0x3e3b718a	0.1830503
33	0x3d5dcbdb	0.05414949
34	0x3e157120	0.14593935
35	0x3dd6944e	0.104775056
36	0x3dfd7ab3	0.12376919
37	0x3cc06ff3	0.023490882
38	0x3e9763bb	0.29568276
39	0x3df995c3	0.12186768
40	0x3b385778	0.0028128307
41	0x3d0613fc	0.032733902
42	0x3a055ff9	0.00050878484
43	0x3cc78498	0.024355218
44	0x3d3f4b9e	0.046702974
45	0x3c2cb5d2	0.010541396
46	0x3e236032	0.15954664
47	0x3e0f9171	0.14020325
48	0xbcd2e4dd	-0.025743896
49	0x3dbb82a9	0.09155781
50	0x3cfe5b80	0.03104949
51	0x3d927c0f	0.071525685
52	0x3e2a5c26	0.16636714
53	0xbc3dc84f	-0.011583402
54	0x3e078b3e	0.1323671
55	0xbd323388	-0.043506175
56	0x3d4ebf98	0.050475687
57	0x3e2f1aa3	0.17100005
58	0xbc760f0e	-0.015018238
59	0xbcd0d533	-0.025492286
60	0x3df2b23a	0.118504
61	0xbdfe7cf2	-0.12426175
62	0x3d8c259c	0.06843111
63	0x3b1e5a6d	0.0024162785
64	0x3b9ebf0e	0.004844553
65	0x3e468bfe	0.1938934
66	0x3d01c16f	0.031678613
67	0xbb009ee3	-0.0019625954
68	0x3c846127	0.016159607
69	0x3d8b19b1	0.067920096
70	0x3c530718	0.012880109
71	0x3e2a499e	0.16629645
72	0x3e5291b5	0.20563395
73	0x3ca99d86	0.020704996
74	0x3e07cbe5	0.13261373
75	0x3db3d4ad	0.08780799
76	0x3e8e0103	0.27735147
77	0x3bcc8bc2	0.0062422464
78	0x3e6ed83d	0.23324676
79	0x3bb8b7fb	0.0056371666
80	0xbd34c67e	-0.04413461
81	0x3d6f60f8	0.058442086
82	0x3e6e6081	0.23279001
83	0x3cf56426	0.029954981
84	0x3d69051a	0.05688963
85	0x3dc17518	0.09446162
86	0x3de361f2	0.11102666
87	0x3e46715e	0.19379184
88	0x3dd65fa8	0.10467464
89	0xbd689ed8	-0.05679211
90	0x3d496f0c	0.04917817
91	0x3d5704d7	0.05249485
92	0x3dcebc93	0.100945614
93	0x3dd784c4	0.1052337
94	0xbd5ac047	-0.053406026
95	0x3e1f0282	0.155283
96	0x3db9c6b8	0.09071106
97	0x3d003885	0.0313039
98	0x3cd48ac1	0.02594507
99	0x3e4c0658	0.19924295
100	0xbbda62ca	-0.0066646086
101	0x3dfcd291	0.1234485
102	0xbd64dff2	-0.055877633
103	0x3df61b56	0.12016933
104	0x3d444fe3	0.04792775
105	0x3dbd5139	0.092440076
106	0x3d9f6468	0.07782823
107	0x3d781cf8	0.0605745
108	0x3dc360c9	0.09539945
109	0x3b916295	0.0044368007
110	0xbcf78bb4	-0.030217983
111	0x3b58e30d	0.0033094317
112	0x3e4d4734	0.20046693
113	0x3c34ca47	0.011034555
114	0x3dd271ec	0.10275635
115	0x3df7c247	0.12097602
116	0x3e3f3cf8	0.18675601
117	0x3d962463	0.07331159
118	0x3dde7ed8	0.10864037
119	0x3e3a3554	0.18184406
120	0x3cdb89b7	0.026799066
121	0x3e32c98d	0.17459698
122	0xbc076bf4	-0.008265484
123	0x3d18992a	0.037255444
124	0x3e1cc9cc	0.15311354
125	0x3d4af120	0.04954636
126	0xbcf7e4b0	-0.030260414
127	0x3d155d00	0.036465645

l2.weight f4 [128, 128]
0	0x3d1f9fc1	0.038970713
1	0x3d9d9c63	0.07695844
2	0x3d1e0898	0.038582414
3	0xbd25fcc7	-0.04052427
4	0xbd49ee7d	-0.049299706
5	0x3ca7254c	0.020403527
6	0xbd762bad	-0.060100246
7	0xbd8f08e5	-0.06984118
8	0x3d5e5a83	0.054285537
9	0xbd48d90e	-0.049035124
10	0x3d6e4bd8	0.0581778
11	0xb8bac75c	-8.906305e-05
12	0xbd293c04	-0.041317
13	0xbd5e0b6f	-0.054210123
14	0x3d8a7c6e	0.06762014
15	0x3d87e0a1	0.066346414
16	0xbcf0ebe6	-0.02940936
17	0xbc445eb1	-0.011985467
18	0x3d4a5e0f	0.049406108
19	0xbd9d0bd2	-0.0766827
20	0x3e02569b	0.1272835
21	0x3cb721c1	0.022354962
22	0x3d7da96d	0.061929155
23	0xbdce121a	-0.10062046
24	0x3c2ce39c	0.010552313
25	0xbd8fca92	-0.07021059
26	0x3d3aa3f9	0.045566533
27	0xbcade2d4	-0.021226324
28	0xbd1d7875	-0.038444955
29	0xbd823255	-0.06357256
30	0x3d555d17	0.05209073
31	0xbb86b33e	-0.004110723
32	0xbd0c689a	-0.034279443
33	0xbd9161a3	-0.07098701
34	0xbb785e6b	-0.0037898074
35	0xbce33d3f	-0.027739165
36	0xbd484562	-0.048894294
37	0xbcbde2ec	-0.023179494
38	0x3d4be838	0.049782008
39	0x3d9c5545	0.07633451
40	0xbd755423	-0.059894692
41	0x3d8d0a2e	0.06886707
42	0x3d951845	0.0728002
43	0x3bb59f45	0.005542668
44	0xbdcad060	-0.099030256
45	0x3dbddf1f	0.092710726
46	0x3d76b19f	0.060227986
47	0x3d8a5e88	0.06756312
48	0xbd876f89	-0.066130705
49	0xbcdbfcd2	-0.026853953
50	0xb8a62fa7	-7.924373e-05
51	0x3d161bf8	0.036647767
52	0x3c64ebb8	0.013972215
53	0xbc3c6619	-0.011498951
54	0xbd6bbcb1	-0.057552997
55	0xbd7e20d1	-0.062043015
56	0xbd5339f6	-0.051568948
57	0xbcbf5144	-0.02335418
58	0xbd51dbd3	-0.05123503
59	0xbb8a4fba	-0.00422093
60	0xbd8d5527	-0.06901007
61	0xbda9d0fa	-0.08291812
62	0x3c1198ce	0.008886529
63	0x3ca16667	0.01970215
64	0x39cf16c6	0.00039499084
65	0xbd575db2	-0.05257959
66	0xbdeeb008	-0.11654669
67	0xbcc2065b	-0.023684671
68	0x3d5c007b	0.053711396
69	0xbd8f0163	-0.06982686
70	0xbda9a6d3	-0.08283772
71	0x3db8354f	0.08994543
72	0x3d994a05	0.07484821
73	0xbb72e9ad	-0.003706555
74	0xbd87c888	-0.06630045
75	0xbd140677	-0.036138978
76	0xbc8fc3bc	-0.017549388
77	0xbd6ea23c	-0.058260188
78	0xbc8aea77	-0.016957505
79	0x3da26bf7	0.07930749
80	0xbd970874	-0.07374659
81	0xbdd7d6b0	-0.10538995
82	0xbd3aaf93	-0.045577597
83	0xbbac4c7c	-0.005258141
84	0x3c0c38e0	0.008558482
85	0x3da2ddc0	0.07952452
86	0xbd7aeb54	-0.061259583
87	0x3b811eaa	0.003940423
88	0xbb818349	-0.003952418
89	0xbbf9a822	-0.00761892
90	0xbda891df	-0.08230948
91	0x3d9ecad5	0.07753531
92	0xbceb8a3f	-0.028752444
93	0xbc1cbf6c	-0.009567123
94	0x3e0283fc	0.1274566
95	0xbd92de8d	-0.071713544
96	0x3d206796	0.039161287
97	0xbcb8ea12	-0.02257255
98	0x3bfdae54	0.007741729
99	0x3c0d0bdc	0.0086087845
100	0xbd75c7fe	-0.06000518
101	0xbd2d45b5	-0.042302806
102	0x3cc0b64b	0.023524424
103	0xbb20859c	-0.00244937
104	0x3d398fe8	0.045303255
105	0x3d275d3b	0.040860396
106	0xbd7cd489	-0.061726127
107	0x3c1e5495	0.009663721
108	0x3cb19556	0.021677654
109	0xbd00788c	-0.031364962
110	0xbc2655a0	-0.0101522505
111	0x3b572d65	0.0032833454
112	0x3d81b081	0.063324936
113	0xbbf0b2a8	-0.0073455162
114	0xbd09d4c5	-0.03365018
115	0xbd3569d0	-0.044290364
116	0xbced4527	-0.028963638
117	0x3db35f93	0.08758464
118	0xbc814f1f	-0.015784798
119	0x3d6c8c5f	0.057751056
120	0x3d0832bc	0.03325151
121	0xbddf4b00	-0.10902977
122	0x3d12f73d	0.035880316
123	0xbdab8c3e	-0.083763584
124	0x3cf261bb	0.029587617
125	0x3b029ab9	0.0019928648
126	0xbc07e4ee	-0.008294327
127	0x3d972c0f	0.073814504
128	0x3ec7ff5b	0.39062008
129	0x3ebcde30	0.36888266
130	0x3fefb106	1.8725898
131	0xbdcdb117	-0.10043543
132	0x3f20bdb6	0.62789476
133	0x3f0e0c45	0.5548747
134	0x3d94889e	0.0725262
135	0x3f97dd57	1.1864423
136	0x3f76e776	0.9644693
137	0xbd889e38	-0.06670803
138	0x3fbe2571	1.4855176
139	0x3f498eb7	0.7873339
140	0x3e633917	0.22189747
141	0x3f80e74b	1.0070585
142	0x3eba5404	0.36392224
143	0x3cc8e3fb	0.024522772
144	0x3f352de5	0.70773154
145	0x3e0853b6	0.13313183
146	0x3ef120aa	0.47095233
147	0x3e902a3a	0.28157216
148	0xbe982067	-0.2971222
149	0xbda3b06f	-0.079926364
150	0xbc848ca3	-0.016180342
151	0x3f4c476c	0.7979648
152	0xbe8d352e	-0.27579635
153	0xbe8003b8	-0.25002837
154	0xbee34cad	-0.44394436
155	0x3e4511e8	0.19245112
156	0x3fa017e9	1.2507297
157	0xbe145c3f	-0.14488314
158	0xbe6f4855	-0.23367436
159	0x3f3f41c5	0.7470973
160	0x3fb3b6c6	1.4040153
161	0x3f113802	0.56726086
162	0x40190df8	2.3914776
163	0xbe2145a1	-0.15749218
164	0xbea17255	-0.3153254
165	0x3f9fe264	1.2490964
166	0xbeaf8d0f	-0.34287307
167	0x3d6b81ee	0.057496957
168	0x3f3fc2d9	0.7490669
169	0x4002bbea	2.0427194
170	0x3f3f9474	0.74835896
171	0x3f1b2c0c	0.60614085
172	0x3f8b3c66	1.0877807
173	0x3e5b84d5	0.2143739
174	0x3fb495f5	1.4108263
175	0x3f8ab552	1.0836585
176	0x3f4f77ff	0.81042475
177	0x3e06fa85	0.13181503
178	0xbdf16a29	-0.117878266
179	0x3f4ad4f6	0.792312
180	0xbcbcad9c	-0.023032002
181	0x3f2b6cb7	0.6696276
182	0x3f925e60	1.1435051
183	0x3f4867b2	0.78283226
184	0x3f192ffd	0.5983885
185	0x3e246db8	0.1605748
186	0x3ee4a15e	0.44654363
187	0x3edebbb7	0.4350259
188	0xbedd3c4e	-0.4321007
189	0x3f22445a	0.63385546
190	0x3eeb7352	0.4598642
191	0x3ecb3f00	0.39696503
192	0x3c6e4944	0.014543835
193	0x3f004656	0.50107324
194	0x3e1d4ddf	0.15361737
195	0x3f6b6431	0.91949755
196	0x3f0a1df7	0.5395197
197	0x3f36ce40	0.7140846
198	0x3f94312b	1.1577505
199	0x3f1f584c	0.62244105
200	0x3f8d2483	1.1026767
201	0xbe10a973	-0.1412714
202	0x3e522a78	0.20524013
203	0x3edc575f	0.4303541
204	0x3e81bde7	0.25340196
205	0xbe981c87	-0.29709265
206	0x3ecc92cd	0.3995575
207	0x3e293a47	0.16526137
208	0x3e0f351b	0.13985102
209	0x3f92790b	1.1443189
210	0x3f55eb7e	0.8356246
211	0xbe4d8a3f	-0.20072268
212	0x3f22ee4a	0.6364485
213	0x3f9cbbd9	1.2244827
214	0xbd823b7c	-0.06359002
215	0x3f673400	0.9031372
216	0x3f8854b7	1.0650853
217	0xbea107a4	-0.31451142
218	0x3e4d48b4	0.20047265
219	0x3e2ee699	0.17080154
220	0x3fd5e80d	1.6711441
221	0x3f281380	0.65654755
222	0x3dd136c8	0.10215527
223	0x3fb38f44	1.4028096
224	0x3fcaf92f	1.5857295
225	0x3f3c60ab	0.73585004
226	0x3e3bebe6	0.18351707
227	0xbed29cc6	-0.41135234
228	0x3f4326ef	0.7623128
229	0x3e42b7f7	0.1901549
230	0x3e81c666	0.25346678
231	0xbea78381	-0.32717517
232	0x3db72733	0.089430235
233	0x3e962179	0.29322413
234	0xbe4d7d3c	-0.20067304
235	0x3eab3ad9	0.33443335
236	0x3f4bd37c	0.79619575
237	0x3edf9805	0.4367067
238	0x3ebcc9a1	0.3687258
239	0x3f380b99	0.71892697
240	0x3faf76d0	1.3708134
241	0x3f05c81d	0.52258474
242	0x3f1e02da	0.617231
243	0x3e9fee07	0.31236288
244	0x3f1d6e59	0.614965
245	0x3fc224f0	1.5167522
246	0x3f1f25d4	0.62167096
247	0x3ec9a1f7	0.39381382
248	0x3e9f0f91	0.31066564
249	0xbe9af1b9	-0.30262545
250	0x3eb1e1d1	0.34742597
251	0xbd826bd1	-0.063682206
252	0xbe8fd8fd	-0.28095236
253	0x3f1298b0	0.5726423
254	0x3dfffc72	0.12499322
255	0xbe2b5c86	-0.16734514

l2.bias f4 [128]
0	0xbdb595e3	-0.08866479
1	0x3e12ffaf	0.14355348
2	0x3b525dcb	0.0032099362
3	0xbc94652b	-0.018114647
4	0xbc19b8c5	-0.009382431
5	0xbe0bfb5d	-0.13670106
6	0xbe21609c	-0.1575951
7	0x3cb49f0e	0.0220485
8	0xbdfa16df	-0.122113936
9	0xbe1ff6dc	-0.15621513
10	0xbdac3cc7	-0.0841003
11	0xbc81b165	-0.015831659
12	0xbdd513eb	-0.1040419
13	0xbd85c3df	-0.065315
14	0xbdb61348	-0.08890396
15	0xbdb7f73d	-0.08982704
16	0xbd7462ba	-0.059664465
17	0x3dc41bf0	0.09575641
18	0xbc678d27	-0.014132774
19	0xbd6fb31d	-0.058520425
20	0xbdf44d1c	-0.1192877
21	0xbde604f0	-0.112314105
22	0xbdc03b70	-0.09386337
23	0xbdf8e419	-0.12152881
24	0x3bb84b70	0.005624227
25	0xbd74c73a	-0.05976031
26	0xbdb3db7a	-0.08782096
27	0x3d5427b4	0.051795676
28	0xbdc4c879	-0.096085496
29	0xbd99246a	-0.074776486
30	0x3d32e057	0.04367098
31	0xbd94bc81	-0.07262517
32	0xbe3923a3	-0.1808
33	0xbd2c73ae	-0.04210251
34	0xbcae50a2	-0.021278683
35	0xbc01cb75	-0.007922043
36	0xbe340e6f	-0.17583631
37	0xbd599542	-0.05312086
38	0xbaca9af2	-0.0015457554
39	0x3df061c3	0.117373966
40	0xbe2cf841	-0.16891576
41	0xbd011bb1	-0.03152055
42	0xbd5aac90	-0.053387225
43	0xbd6f7736	-0.058463298
44	0xbe013e02	-0.1262131
45	0xbe31ac60	-0.17350912
46	0xbdb4b716	-0.08823983
47	0xbd94c9cd	-0.07265053
48	0xbd25fe60	-0.040525794
49	0x3e3bb11a	0.18329278
50	0xbd8229a5	-0.06355599
51	0xbdd72855	-0.105057396
52	0xbdd06bd2	-0.10176815
53	0xbd75c5ca	-0.06000308
54	0xbcc5b5c3	-0.024134522
55	0xbe577995	-0.21042474
56	0xbdd2ae67	-0.10287171
57	0xbd6a2c43	-0.057171118
58	0xbc90f7e5	-0.01769633
59	0xbddfeb5d	-0.10933564
60	0xbe34b6c6	-0.17647848
61	0xbdf7089d	-0.1206219
62	0xbd90ccc2	-0.070703045
63	0xbc939825	-0.018016884
64	0x3de60974	0.11232272
65	0xb9ee2c11	-0.0004542773
66	0xbcfcc568	-0.03085585
67	0x3d5789a2	0.05262149
68	0xbc82f8f8	-0.015987858
69	0xb9f41822	-0.00046557287
70	0xba86b8ab	-0.0010278424
71	0xbcfd3274	-0.030907847
72	0xbded5ca9	-0.11589939
73	0xbd379517	-0.044819918
74	0xbd427ec7	-0.047484186
75	0xbdc3b852	-0.09556641
76	0x3d48c092	0.049011774
77	0xbd8af9cf	-0.067859285
78	0x3d98256a	0.07429011
79	0xbdc777ec	-0.0973967
80	0xbd4e2c0f	-0.050334986
81	0xbd77aa35	-0.060465056
82	0x3d4f29fb	0.050577145
83	0xbd7e1a97	-0.062037077
84	0xbe4d0027	-0.2001959
85	0xbde898ad	-0.113572456
86	0xbd86dafa	-0.06584735
87	0xbd9177c2	-0.0710292
88	0xbde09c5d	-0.10967324
89	0xbe2e650b	-0.17030732
90	0xbde54ddd	-0.11196492
91	0x3d82e81a	0.06391926
92	0xbda59ee6	-0.08086948
93	0xbd8e388a	-0.06944378
94	0xbcb8f90b	-0.02257969
95	0x3b8b22b5	0.0042460808
96	0x3d8e3644	0.06943944
97	0x3bbd5682	0.005778135
98	0xbdf17291	-0.1178943
99	0xbdc3847e	-0.09546755
100	0xbe18bb62	-0.14915231
101	0xbd114c60	-0.035473228
102	0x3d3f0785	0.04663803
103	0xbdfafaf4	-0.12254897
104	0xbd8afa66	-0.06786041
105	0xbded6816	-0.115921184
106	0x3d3d1e1d	0.046171296
107	0xbd99dd90	-0.07512963
108	0xbdf0c15a	-0.11755629
109	0xbd2a2f71	-0.04154915
110	0x3b764071	0.0037575031
111	0xbdde1e3a	-0.10845609
112	0x3ccd521f	0.025063572
113	0x3b5146cb	0.0031933065
114	0x3ba9950a	0.0051752375
115	0xbda9bf5e	-0.082884535
116	0xbe5cb827	-0.21554624
117	0xbd16871b	-0.03674994
118	0xbcc4a35c	-0.024003677
119	0x3c398b30	0.011324689
120	0x3bad2084	0.005283417
121	0xbce101d0	-0.027466685
122	0xbe163947	-0.14670287
123	0x3c075e76	0.008262267
124	0xbe11190c	-0.14169711
125	0x3c94b3bd	0.018152112
126	0x3b49d41c	0.0030796593
127	0xbd83ff30	-0.064451575

l3.weight f4 [33, 128]
0	0xbd8d44ec	-0.068979114
1	0xbf71e57f	-0.9449081
2	0x3d446238	0.04794523
3	0x3e01a716	0.12661394
4	0xba8e09d9	-0.0010836675
5	0x3d1c43e9	0.0381507
6	0xbea0caf3	-0.31404838
7	0xbd4d2002	-0.050079353
8	0x3de0828d	0.109624006
9	0xbffcc838	-1.9748602
10	0xbf80ee3a	-1.0072701
11	0x3deae50a	0.11469467
12	0x3c23f9fa	0.0100083295
13	0x3df218c8	0.11821133
14	0x3d47b11a	0.04875288
15	0x3e87116c	0.2638048
16	0x3df5c02e	0.11999546
17	0x3e06cdc4	0.13164431
18	0xbd117b7f	-0.035518166
19	0xbea7b0f9	-0.32752207
20	0xbedae786	-0.42754763
21	0xbd97cf7f	-0.074126236
22	0x3daba995	0.083819546
23	0xbf0376ef	-0.51353353
24	0xbf3170bb	-0.6931264
25	0xbe4a6c12	-0.19767788
26	0xbe86d7bf	-0.26336476
27	0xbf1d3310	-0.6140604
28	0x3d5258ab	0.05135409
29	0xbe74441b	-0.23854105
30	0x3e09751c	0.1342358
31	0xbe59353f	-0.21211718
32	0xbefb4d9d	-0.49082652
33	0xbefa8107	-0.48926565
34	0x3e2a1f6d	0.1661355
35	0x3db3bfef	0.08776843
36	0xbf1403ad	-0.5781811
37	0xbe629977	-0.22128855
38	0xbea52329	-0.32253388
39	0xc04c44fd	-3.1917107
40	0xbddccf72	-0.107817546
41	0xbc1ee560	-0.009698242
42	0xbf0dc459	-0.5537773
43	0x3e462762	0.19350961
44	0xbfb4c0f5	-1.4121386
45	0xbed8b0ba	-0.42322332
46	0xbf27a20b	-0.6548163
47	0xbd5e0929	-0.054207955
48	0xbee617ef	-0.44940135
49	0xbf94b9ff	-1.1619262
50	0xbe27aa1b	-0.16373484
51	0xbe09f482	-0.13472179
52	0xbfa1855d	-1.2618824
53	0x3d80b768	0.06284982
54	0xbd8d2130	-0.06891096
55	0xbf5b7b42	-0.8573495
56	0x3d174f6c	0.036940977
57	0xbdb15c94	-0.08660236
58	0xbecb6fb1	-0.3973365
59	0xbc4cb5b2	-0.012494491
60	0xbee4c16d	-0.44678822
61	0xbecaea19	-0.39631727
62	0x3d523758	0.05132231
63	0xbebca63b	-0.36845574
64	0xbfce15f7	-1.6100453
65	0xbf12e50e	-0.5738076
66	0xbd8cdf9d	-0.06878588
67	0x3e54df19	0.2078823
68	0xbe4e0f46	-0.20123014
69	0x3d1bbb9e	0.038020723
70	0xbe613631	-0.21993329
71	0xbe3d58fd	-0.18490978
72	0xbed25c01	-0.41085818
73	0xbc2dc6c2	-0.01060647
74	0xbdd88bec	-0.10573563
75	0x3e5c8c44	0.21537882
76	0x3e6306db	0.22170584
77	0xbf255b9e	-0.6459292
78	0x3e15af70	0.14617705
79	0x3db02d47	0.08602386
80	0x3d542144	0.051789537
81	0xbcd2c78a	-0.025729913
82	0xc0018576	-2.0237708
83	0xbed3819e	-0.41309828
84	0x3e6fb923	0.23410468
85	0xbf1e92b4	-0.619426
86	0xbe923b9c	-0.28561103
87	0xbe8944c6	-0.26810282
88	0x3e1a46be	0.15066049
89	0xbeffdf85	-0.4997522
90	0xbc16cd0b	-0.0092041595
91	0xbd3aeff1	-0.045638982
92	0xbcae2cdf	-0.02126163
93	0xbd905d1a	-0.07049008
94	0xc02e4cc9	-2.7234366
95	0xbe804816	-0.25054997
96	0x3e3d30a8	0.18475592
97	0xbe9fb56b	-0.31193098
98	0x3dcc7311	0.09982885
99	0x3e1434ce	0.14473268
100	0x3d0264df	0.03183448
101	0xbdd75fa2	-0.105162874
102	0x3dd30a42	0.10304691
103	0xbf52f785	-0.82408935
104	0xbf5d0413	-0.8633434
105	0xbeaef250	-0.34169245
106	0xc031e762	-2.7797475
107	0xbe347fe9	-0.17626919
108	0xbd20fe3e	-0.039304964
109	0x3e05c606	0.13063821
110	0x3e6b4891	0.229769
111	0xbdaac93c	-0.08339164
112	0xbe082238	-0.13294303
113	0x3ddd5b8a	0.10808475
114	0xbf2ffd34	-0.6874573
115	0x3de26a82	0.11055471
116	0xbe8634bc	-0.26212108
117	0x3d7c9720	0.06166756
118	0xbe4f67ab	-0.2025439
119	0xbe1d1449	-0.1533977
120	0x3ddb23e3	0.10700204
121	0x3ddf027d	0.108891465
122	0x3b8f2e53	0.004369536
123	0xbee0e44f	-0.43924186
124	0xbf1777a3	-0.59166926
125	0xbf279580	-0.65462494
126	0x3d9006e0	0.07032561
127	0xbd254e40	-0.04035783
128	0xbcd32f8f	-0.025779514
129	0xbf60f958	-0.8788047
130	0xbc2ebdeb	-0.010665397
131	0xbd920385	-0.071295775
132	0xbefe4082	-0.4965859
133	0x3d87e7bd	0.066359974
134	0xbeb6aef5	-0.35680357
135	0xbed60755	-0.4180247
136	0xbeb3f53f	-0.35148045
137	0xbfdd33e6	-1.7281463
138	0xbea640b0	-0.32471228
139	0x3e7b9dc3	0.245719
140	0xbcba9853	-0.022777712
141	0xbf4c7eba	-0.7988087
142	0x3daba785	0.08381561
143	0xbd390e9a	-0.04517994
144	0xbc7b3909	-0.015333422
145	0x3e08780e	0.13327047
146	0xbebfc03d	-0.37451354
147	0xbe9df9aa	-0.3085454
148	0x3cd68e69	0.026190953
149	0x3c121646	0.008916443
150	0xbb15d06c	-0.0022859825
151	0x3e071541	0.13191701
152	0xbe8bcb83	-0.27303705
153	0x3e3a4a9f	0.18192528
154	0xbefec430	-0.49759054
155	0xbe9589e9	-0.2920678
156	0xbdd13681	-0.10215474
157	0xbfc39565	-1.5279967
158	0x3e19f2c3	0.15034012
159	0xbda0bb7d	-0.078482606
160	0xbc5c8c6c	-0.013461214
161	0xbf57d707	-0.8431248
162	0x3bd2a3f3	0.0064282357
163	0xbc9d6de9	-0.019217448
164	0xbf895ca8	-1.0731401
165	0xbeaa016b	-0.33204207
166	0x3e51e195	0.20496209
167	0xc03faaa2	-2.9947896
168	0xbe4812e4	-0.19538456
169	0x3e1d194e	0.15341684
170	0xbe935ea0	-0.2878313
171	0x3d1c99f9	0.038232777
172	0xbf6db04f	-0.9284715
173	0xbee4064e	-0.4453606
174	0xbe84456f	-0.25834224
175	0x3d3c7356	0.04600843
176	0xbe0b4c7f	-0.136034
177	0xbfef10ea	-1.8677037
178	0xbead72bc	-0.33876598
179	0xbeeba553	-0.4602457
180	0xbf914e9a	-1.1352112
181	0x3b4a8170	0.0030899905
182	0xbdf61ea8	-0.12017566
183	0xbf07503a	-0.5285679
184	0xbf26ba77	-0.6512827
185	0x3cd07391	0.025445731
186	0xbf7dc874	-0.9913399
187	0xbc231861	-0.009954543
188	0xbee12235	-0.4397141
189	0xbe1182a9	-0.14209999
190	0xbe310bd5	-0.1728967
191	0x3c1dd022	0.009632142
192	0xbfe8a65d	-1.817577
193	0xbd58d204	-0.05293466
194	0xbcb3533e	-0.021890279
195	0x3de4215e	0.11139177
196	0xbf2fc736	-0.68663347
197	0x3e115457	0.1419233
198	0xbf28e325	-0.65971595
199	0xbe2e8a5b	-0.17044966
200	0xbe3fb275	-0.1872042
201	0x3d658762	0.056037314
202	0x3dd67123	0.10470798
203	0x3b4e5528	0.0031483863
204	0xbc12afc2	-0.008953037
205	0xbd17cb13	-0.0370589
206	0xbee431ef	-0.44569346
207	0xbf0f6e71	-0.56027895
208	0xbd9f9333	-0.07791748
209	0xbe3f9b10	-0.18711495
210	0xbf138c11	-0.576356
211	0xbd9fc385	-0.07800964
212	0xbf3138d8	-0.6922736
213	0xbe48a60b	-0.1959459
214	0x3dc2f1e1	0.09518791
215	0xbeb63781	-0.3558922
216	0xbe8fa2e9	-0.28053978
217	0xbeec15d7	-0.46110412
218	0x3df6441f	0.12024712
219	0x3ddd6956	0.10811107
220	0x3d8a6be2	0.06758858
221	0xbf70c6c1	-0.94053274
222	0xbf77161d	-0.9651812
223	0xbe8d2084	-0.2756387
224	0x3e6c06fa	0.23049536
225	0xbeb85fc4	-0.36010563
226	0xbdde9561	-0.108683355
227	0xbd6c4327	-0.05768123
228	0xbef58ec5	-0.47960487
229	0xbd51cf77	-0.051223245
230	0xbe4ac8af	-0.19803117
231	0xbf210677	-0.6290049
232	0xbe9a1877	-0.3009679
233	0xbc50ce52	-0.012744503
234	0xbff44398	-1.9083128
235	0xbdd7b3c2	-0.10532333
236	0xbfc232fc	-1.5171809
237	0xbea5ac0d	-0.32357827
238	0x3daef06e	0.08541952
239	0xbe4952ec	-0.19660538
240	0xbf581990	-0.84414005
241	0x3ddab1e6	0.10678463
242	0xbf066222	-0.5249349
243	0x3daa6a88	0.083211005
244	0xbf40f8a8	-0.7537942
245	0xbb6f85eb	-0.0036548327
246	0xbe6f698e	-0.2338011
247	0xbe660f29	-0.2246672
248	0xbb02a29d	-0.001993335
249	0x3cecf434	0.028925039
250	0xbe1e5392	-0.15461567
251	0xbe834ba9	-0.25643662
252	0xbecc7324	-0.39931595
253	0xbf1d33ad	-0.61406976
254	0xbdd93fc4	-0.106078655
255	0xbe2ef536	-0.17085728

l3.bias f4 [33]
0	0xc0350d2a	-2.8289285
1	0xbf856676	-1.0421894
2	0x3beffaf8	0.007323619
3	0xc035eeb9	-2.8426955
4	0xc0875bb2	-4.2299433
5	0xc082e270	-4.0901413
6	0xbff9a4e6	-1.9503448
7	0xc0747de4	-3.8201838
8	0xbfe70d17	-1.805087
9	0xc0520d5b	-3.2820652
10	0xbf9c729a	-1.2222474
11	0xbfdaab1b	-1.7083467
12	0xbf971d82	-1.180588
13	0xc047b0da	-3.1201692
14	0xc05abde9	-3.4178412
15	0xbcf7cf65	-0.03025026
16	0xbfba7507	-1.4566964
17	0xc0418d52	-3.0242505
18	0xbf5354b9	-0.8255115
19	0xc0394c1e	-2.8952708
20	0xbfb3e966	-1.4055603
21	0x3c10499f	0.008806615
22	0xbf9d0ead	-1.2270104
23	0xc003ec12	-2.0612836
24	0xc0870fad	-4.2206635
25	0xbf7de761	-0.9918118
26	0xc00282fc	-2.0392447
27	0xc06f98a1	-3.7436907
28	0xc026e0cf	-2.6074712
29	0xbc7239d1	-0.014784292
30	0xc0231421	-2.5481036
31	0xbf9a0069	-1.2031375
32	0xbf898f26	-1.074681
