data.pth (torch, 10794 bytes, 6 tensors)

l1.weight f4 [8, 149]
00000000: e28f 893f 6e2b ff3e e453 b33e a29b ae3e
00000010: 70af 6a3f c6ad a53f 5ce3 bb3e 2719 30be
00000020: 1891 24be 91f3 cebd 03f0 2bbd 0e17 5abe
00000030: 8457 423c d9d2 173e 63da ca3e a323 71be
00000040: da6b b2be c035 0f3d 0dd0 833e cdd3 a0bd
00000050: 2952 483f 1d84 b93e db7a cfbe d3a7 183f
00000060: 5d74 a4be 002c 48bf a5e0 82be 0b61 45be
00000070: 39ef 0f3f 0503 393f 1d3d 263e 8051 03bf
00000080: 488d 8abe 21f0 31be 749c f6bd 1410 cd3d
00000090: 74c5 1dbc ce81 22be 168e ebbc b8d0 afbe
000000a0: 5a3d 843e 1408 8f3f c7c4 10be 968b 63bd
000000b0: 27ad 9cbf 1a50 663e c4b2 94be 3599 84bd
000000c0: a0d6 40be e780 483f f517 06bf 0b47 8c3e
000000d0: 35e9 43bf 3de1 43bf e74f 2abd 9374 f8bd
000000e0: 1a46 923e 2cb7 4e3e 2614 4abf f789 7f3e
000000f0: fda3 39be 8ef8 483e aa60 833d d9f6 6dbe
00000100: 2030 b93f bdb5 8a3d a84a aabe 0d31 4fbe
00000110: 3357 a83f ffdc da3d b92e 723e d60f a13f
00000120: 4719 053f 25a9 b13e 3987 c83e 5113 08be
00000130: 3262 aabe bda4 55bd 0ed4 7a3d 4a74 9c3e
00000140: f965 7b3f d60f 343d 0b99 783e 1b22 84be
00000150: 3c3c 7bbe a8b0 debe 94ec 80be 4023 a63e
00000160: 2de6 873e 7e4a 753e 7abb fb3e c211 06bf
00000170: 67c3 28bf 2b19 453e f119 abbe d9bf 953f
00000180: 50bd 05bd 87bc 2d3f 9294 993d 264f acbe
00000190: 2003 a6be cb8d 573d e954 c7bd 4d58 d2be
000001a0: eba5 d1be 5536 8abd 517c 22bf 9713 9e3e
000001b0: f116 8a3f cf1e 483e a97a 953f 2899 b33e
000001c0: fd25 f93e 250e 633f f831 043f 985e a4bc
000001d0: 37ee 4ebd 89ae 643f c683 a63e 8c73 e73e
000001e0: 51b1 83bf 5d6c ba3d 9148 a73f f936 b43e
000001f0: 2e82 283f 0aed 9abd 7079 373f d712 e1be
00000200: de0a 57be 15ae 6ebd 2fb5 013e a96c 45be
00000210: 486a cc3e f9f6 40be 6e50 b7be a180 af3d
00000220: 0158 bfbe d340 563e d5fe a9bd 133c ce3e
00000230: 3aa7 b83e 56dc 84be f521 9a3d e3f2 423e
00000240: ba91 8ebe 7411 d13e c1f3 9dbe e44b 2d3f
00000250: eb56 f83e 5703 603f 6094 9b3e d74c f73e
00000260: de08 a53c c97f f03e 6b74 513f 2373 013f
00000270: 4232 283e 3df5 a5be e055 b2bd aa12 19be
00000280: f388 9ebe 4a81 c1be 12c4 4c3e 041c 84be
00000290: eccb 9b3e fbfa a13e f4c2 ecbe 784a 013f
000002a0: cf2f 843e a557 1c3f a576 963e 76ab 6a3f
000002b0: 1aab 7dbf 954d 9c3e ac9f 9bbe f8a2 a63e
000002c0: b47c a23e e3b9 803e 525e f43e be7e 70bf
000002d0: e8e1 a73d eee6 123e b49f b8bd 3a47 483e
000002e0: 89af 0c3e ff5e ab3e 4813 133f fb7d a03e
000002f0: edb1 f5bd da80 2b3f 9aac 0bbf 2ed8 25be
00000300: 94d0 9b3e 2eaa 45bf 8272 133f 939d d73e
00000310: f08b 7f3e 60dd 703e 9cd4 f83e b657 e6be
00000320: 58f7 0abe c961 d43e 265a e93e 85d6 d23e
00000330: d117 1c3e 76c1 e43e 1c3f 093f 39f0 26bf
00000340: 306c 843e 3433 c33e 425b 093f 1c25 bd3e
00000350: b6e9 953e e319 313e a31b 1d3e ef2c b53e
00000360: 5646 1d3e d436 01bf 6d7f 5abd 01bc 123f
00000370: bd5b 213f c65b 053e e85e b43e 4918 723e
00000380: e6d4 a03e d653 3a3f 5a78 3c3f 2cb3 4b3e
00000390: d9f9 403f 1aea d8bb f4ab 2b3e e5c1 eb3e
000003a0: ecc5 e33e 182e 13be c161 723f ee5b 913e
000003b0: 3a99 0b3f 6e35 d53e 5ec1 a53e bc46 df3e
000003c0: 7c71 2abf 4ee9 22bf 2485 e53e c9a2 fa3e
000003d0: 03f5 d3be e05b 093e 1fe1 933f dd66 023e
000003e0: fba5 02bf 5c05 b13e e5ef 5abe a1f4 47be
000003f0: 403e 593d d3af 25bf 5444 6d3e 26a2 043f
1.0747035 0.49837822 0.3502494 0.34103113 0.91673946 1.2943656 0.366969 -0.17197095
-0.16070974 -0.1010505 -0.04197694 -0.21297857 0.011861686 0.14826526 0.3961974 -0.2354875
-0.3484791 0.03496337 0.25744668 -0.07852898 0.78250366 0.36233607 -0.4052342 0.5963108
-0.32120028 -0.7819214 -0.25562015 -0.192753 0.562244 0.7227023 0.1623425 -0.51296234
-0.27060914 -0.17376758 -0.1204156 0.10012832 -0.009629596 -0.15869829 -0.028754275 -0.34338927
0.25828058 1.117434 -0.14137565 -0.05555304 -1.2240342 0.22491494 -0.29042637 -0.064745344
-0.18831873 0.7832169 -0.52380306 0.2739795 -0.7652772 -0.7651556 -0.041580107 -0.1213161
0.28569108 0.20187062 -0.78936994 0.24954973 -0.18128963 0.19626066 0.064149216 -0.23238696
1.4467812 0.06772945 -0.33260083 -0.20233555 1.3151611 0.10686683 0.23650636 1.2582958
0.51991695 0.3469936 0.39165667 -0.13288619 -0.33278042 -0.05215906 0.061237387 0.30557472
0.9820247 0.043960415 0.24277131 -0.2580727 -0.24534696 -0.43494153 -0.25180495 0.3244877
0.26542798 0.23954198 0.4916647 -0.52370846 -0.6592316 0.19247882 -0.3341823 1.1699172
-0.032651246 0.67865795 0.07499041 -0.33654135 -0.3242426 0.05262546 -0.09732992 -0.41082993
-0.40946898 -0.06748644 -0.6347094 0.3087432 1.0788251 0.19543003 1.1678058 0.35077786
0.48661795 0.8869346 0.51638746 -0.020064637 -0.050520148 0.8932882 0.3252241 0.45205343
-1.0288488 0.091027 1.306902 0.3519819 0.6582364 -0.07564743 0.71669674 -0.43959686
-0.21000239 -0.058271486 0.12666772 -0.19279732 0.39924836 -0.18844213 -0.3580355 0.08569456
-0.3737183 0.20923166 -0.083005585 0.40280208 0.36065084 -0.25949353 0.07526008 0.19037966
-0.27845556 0.40833628 -0.30850032 0.67693925 0.48503813 0.87505096 0.3038664 0.48300812
0.02014583 0.46972492 0.81818265 0.5056631 0.16425422 -0.32413664 -0.087077856 -0.14948526
-0.3096386 -0.37793952 0.1999667 -0.25802624 0.30429018 0.31636795 -0.46242487 0.50504255
0.25817725 0.61071235 0.29387394 0.9166788 -0.99089205 0.3052794 -0.30395257 0.3254621
0.31735766 0.2514182 0.4772821 -0.93943393 0.08197385 0.14345905 -0.09014836 0.19558421
0.13738836 0.33470914 0.57451296 0.31346115 -0.11996827 0.66993487 -0.54560244 -0.16195747
0.3043257 -0.772128 0.575966 0.42112407 0.24955726 0.23521948 0.48599708 -0.44988793
-0.13570917 0.41480854 0.4557659 0.4117929 0.1524346 0.4467885 0.5361192 -0.652103
0.2586379 0.38125002 0.53654873 0.36942375 0.2927987 0.17295031 0.15342574 0.35385844
0.15358862 -0.50474286 -0.05334418 0.5731812 0.63030607 0.1302329 0.35228658 0.23642077
0.3141243 0.72784173 0.7362114 0.19892567 0.7538124 -0.006619704 0.16764814 0.46046367
0.4448694 -0.14373052 0.9468041 0.2839045 0.5453068 0.41642326 0.3237409 0.43608654
-0.66579413 -0.63637245 0.4482814 0.4895232 -0.41397867 0.13413954 1.1553077 0.12734552
-0.51034516 0.345744 -0.21380575 -0.19526912 0.05303788 -0.6472141 0.23170596 0.5180992

l1.bias f4 [8]
00000000: 4bdf 433f 6790 183f 206a 1a3f e119 7d3f
00000010: 0a30 823f 0145 a13f a1fb 913f 26c5 033f
0.76512593 0.5959534 0.60318184 0.98867613 1.017091 1.2599183 1.1404916 0.514727

l2.weight f4 [8, 8]
00000000: d0cb bebe ba6d bd3e 5269 0ac0 b384 ad3f
00000010: 3f1b 123f 259b acbd cac8 9d3f d68c 923f
00000020: ecde 0040 1422 f33e f3d5 f13e 1e3c 85bf
00000030: 9fd9 0c40 8ace 1abf 540e f03f 7e52 05bf
00000040: 36d8 503f c025 d83f 86d0 883f 78e7 91bc
00000050: 9613 ad3e c20a 1a3f 9031 21c0 0258 b43f
00000060: 090d c1bf 88f4 d03f 1d89 db3f 4c6c 223f
00000070: a39e 653f dc3b 2fbf 76fc 433f b5e7 693f
00000080: 208d a9be d205 f6bd fa74 073e 6682 7cbe
00000090: a87f e33d 1862 29bd acd8 823d 98c8 5e3d
000000a0: 51e1 69bf f179 86bf 696e 4b3f b4eb de3f
000000b0: 89fc 953f a5f2 ff3f b6a3 5d3e 99d1 a9bf
000000c0: aeb6 403e a02f 423e ccf6 d73f d7fc e63f
000000d0: eb9a 96be 76c8 43bf 9f9a f73e 2b69 053f
000000e0: 1973 863f 87ea b43f c988 57bf 7057 97be
000000f0: 1c37 adbf 05ea 0140 9025 993f bbb9 f83f
-0.37264872 0.36997777 -2.1626782 1.3556122 0.57072824 -0.08428029 1.2326901 1.144923
2.013606 0.47486937 0.47233543 -1.0408971 2.2007825 -0.60471404 1.8754373 -0.52079
0.8157991 1.688652 1.0688636 -0.017810568 0.33804005 0.60172665 -2.51865 1.4089358
-1.5082103 1.6324625 1.7151219 0.634465 0.89695185 -0.68450713 0.765571 0.9136918
-0.33115482 -0.12012829 0.13228217 -0.24659118 0.11108333 -0.041353315 0.06388983 0.05439052
-0.9135943 -1.0505964 0.7946535 1.7415681 1.1717693 1.9995924 0.21644482 -1.3267089
0.18819687 0.1896348 1.6872191 1.8045911 -0.29415068 -0.76477754 0.48360154 0.521136
1.0503875 1.4134072 -0.8419309 -0.29558897 -1.3532443 2.0299084 1.1964588 1.943168

l2.bias f4 [8]
00000000: 5570 073f bd57 db3e 9c3a 533f 25f4 7dbe
00000010: 25b9 abbe 1d8b 913f f68c fabe d8c0 0ebe
0.5290578 0.42840376 0.82511306 -0.24800165 -0.33539692 1.1370579 -0.4893567 -0.13940752

l3.weight f4 [28, 8]
00000000: b552 7d3f 6886 d2bf 1de4 f9bf c538 3bbe
00000010: de36 94be c052 583f 0503 873e 2742 d9bf
00000020: b87b c1bf ff96 3b3f 14d5 e9be f7c1 ea3c
00000030: 468c a7be b177 11bd 6876 9c3e 8850 0ac0
00000040: 2d7b 21c0 4e2e 07bf 6c7c 083f 365c fcbd
00000050: 394c 8fbe 9b81 173f f562 56bf fe36 27be
00000060: 2ceb bb3d 1e51 f1be 923e 97bf 491a 673d
00000070: 0025 413c 2edc 93be 0c4b e6be eaa3 e03e
00000080: 9979 e9bf 61c4 0a3f 4259 27c0 f949 09bc
00000090: ecd8 80be 714e 323f e735 14bf aada 86be
000000a0: f46f 0bc0 abe6 b8bf c686 d33d b11f b33e
000000b0: 6068 fb3d 7745 ff3e f6e7 1a3f 63d9 c2bf
000000c0: 526e 7dbf 8731 06c0 77b5 093f 5b36 b03e
000000d0: cebf 39be 20b4 75bf b39f 2b3f a131 2ebe
000000e0: 4e10 03c0 a37b 333f 2ded 0f3f f27c 1dc0
000000f0: 2979 b23e 0f12 b23e a892 f6bf 93ed 12bf
00000100: 82e8 403f 327b bbbf 337b 813e be9d c0bf
00000110: a4d7 f93d 7bf6 5b3f 5043 1cc0 b8c5 acbb
00000120: df9f 1b3f 9930 0cc0 9cb9 e93c 0104 6cbc
00000130: 5f84 adbe 95d0 c4be 260c 37be b8d7 683e
00000140: e3e1 b33e d982 833e 588b cdbf 9f59 2abf
00000150: 9eda 3c3e a5ca 203f a2fe 8bbd 46dd a1bf
00000160: 7860 273f ec76 feba c0e6 2ac0 112d 7d3e
00000170: 901c 983d a6fe fa3e 1cc8 24c0 60e1 6f3e
00000180: 9229 15bf 945d 993e a895 34bd 1923 b8bf
00000190: 251f a0be fbed a3be 2faf 0dc0 13e8 063f
000001a0: 3d53 6b3e 0d77 2cbf bb2b 6f3e a8d0 8c3e
000001b0: 64bb c4bd 8446 e83c edf3 1cbe 7ca8 8dbf
000001c0: d280 233f 8d56 89be 2568 dabf 0d58 8a3e
000001d0: 7ec2 713e 1630 7cbe d8b9 973e 722a 2abf
000001e0: da64 ce3e 253f ba3e 9217 babf 47b1 e93d
000001f0: f17f 923e 00f4 ccbf 4c43 bdbe 6dc9 0cbd
00000200: cc2c 043f 8b5f 733f f884 4dbf 2591 96bf
00000210: 6e8a 573e 4e7f 9dbd fee6 a2bf cedd 23bf
00000220: 0a93 e93e 34ea a3be ca68 e63e 392c 29bf
00000230: 4e03 533e a059 08c0 9c25 99bf 03ac 003f
00000240: 0d59 143f 6b35 4d3f 3dc7 36c0 5f99 853d
00000250: 900f 91bd 647c 35be 56bc c9bb 376f 30c0
00000260: 7613 89bf 1bc7 a8be dc4d c7bf 88d8 0a3f
00000270: f819 bbbd 6c86 463f 9e75 c33e 4b7e 08c0
00000280: 16c7 043f 9c0c b1bf dbd3 22c0 3927 21bf
00000290: 0078 30bd c357 933e b4f6 cfbc c2af 233f
000002a0: 6773 34bf 4746 3b3e 1256 35bf c01c f53e
000002b0: ff4b b23e a81c b2bf 31a8 0f3f 3529 04bf
000002c0: 175a eebf 193c e7bd a52f 05bf b024 8bbd
000002d0: 664c aabe 5fd9 1fbf 7418 ab3e 47c8 233f
000002e0: a93b 02bf 9a46 9ebf 3c5e 3e3f e56f e4bf
000002f0: 98ec 833d fd31 d9be 3bdc 57bf db8d 473f
00000300: 4356 aabf 19b6 05bf 9ec4 74bf 095c 01c0
00000310: c6af 4b3e fa60 343f fedd 853c f7cc 0a3f
00000320: 5b23 f9bf 3054 4b3f 865c 61be 8544 8cbd
00000330: 722c 27be 8b89 a6bf fc76 c2be 4874 55be
00000340: c6dd 493f 5ef5 f83e e832 01c0 9bb0 f3bf
00000350: 4d53 75be 9082 abbf 8ab2 b0bf 4599 463f
00000360: 3ff5 89bf 7e93 ebbe 4739 653f 7d9d db3e
00000370: 80aa 86be 1092 d9bf 6a0f 98be 32f0 a7be
0.98954326 -1.6447268 -1.952274 -0.18283375 -0.2894811 0.84501266 0.2636949 -1.6973313
-1.5115881 0.73277277 -0.45670378 0.028656943 -0.32724208 -0.035514537 0.30559087 -2.1611652
-2.523143 -0.5280503 0.5331485 -0.12322275 -0.2798784 0.5918214 -0.83744746 -0.16329572
0.09175715 -0.471322 -1.181597 0.05642155 0.011788607 -0.2887892 -0.4497913 0.43875057
-1.8240234 0.542059 -2.6148229 -0.008379453 -0.25165498 0.6965094 -0.5789475 -0.26338702
-2.178708 -1.4445394 0.1032844 0.34985116 0.12275767 0.49857685 0.60510194 -1.5222591
-0.9899646 -2.096773 0.5379252 0.3441647 -0.18139574 -0.95977974 0.67040557 -0.1701112
-2.0478702 0.7011053 0.56221277 -2.460751 0.34858063 0.34779403 -1.9263506 -0.5739376
0.7535478 -1.4646971 0.25289306 -1.5048139 0.12199333 0.85922974 -2.4416084 -0.0052725933
0.6079082 -2.1904662 0.028530888 -0.0144052515 -0.33890054 -0.38440385 -0.17875728 0.2273854
0.35133275 0.25685766 -1.6058149 -0.66543 0.18442771 0.6280921 -0.06835677 -1.2645652
0.65381575 -0.0019414104 -2.6703339 0.24724223 0.07427323 0.49022406 -2.5747137 0.23425817
-0.58266556 0.29954207 -0.044088036 -1.4385711 -0.3127376 -0.32017502 -2.2138174 0.5269787
0.22980972 -0.6736916 0.23356526 0.27502942 -0.096060544 0.028353937 -0.15327425 -1.1067042
0.6386844 -0.26823846 -1.7063032 0.27020302 0.23609349 -0.24627718 0.29633975 -0.66471016
0.4031132 0.363763 -1.4538443 0.11410766 0.28613237 -1.6011963 -0.36965406 -0.034371782
0.51630855 0.9506766 -0.8028102 -1.1763045 0.210489 -0.07690297 -1.2726743 -0.6401032
0.45619994 -0.3201462 0.45001823 -0.66083103 0.2060673 -2.1304703 -1.1964602 0.5026247
0.5794838 0.80159634 -2.8559105 0.06523394 -0.070830464 -0.17723233 -0.0061564846 -2.756788
-1.0709064 -0.32964405 -1.5570636 0.5423665 -0.091358125 0.7754886 0.38175672 -2.1327083
0.5186628 -1.3831973 -2.5441806 -0.62950474 -0.04308319 0.28777894 -0.025386192 0.6394006
-0.7048859 0.18288527 -0.7083446 0.47873497 0.34823605 -1.3914995 0.56116015 -0.51625377
-1.8621243 -0.112907596 -0.52025825 -0.06794107 -0.33261412 -0.62441057 0.33417094 0.63977474
-0.50872284 -1.2365296 0.7436254 -1.7846648 0.06441611 -0.4242095 -0.8432042 0.7795083
-1.3307575 -0.52230984 -0.95612514 -2.0212424 0.19891271 0.70460474 0.016341206 0.54219
-1.9463915 0.79425335 -0.22007951 -0.068490066 -0.16325548 -1.3010725 -0.37981403 -0.20845139
0.78854024 0.486247 -2.018732 -1.9038271 -0.23957558 -1.339922 -1.3804486 0.7757762
-1.0777968 -0.46010965 0.89540523 0.42893592 -0.26301956 -1.69977 -0.2969926 -0.32800442

l3.bias f4 [28]
00000000: d313 f23e 47bd 913e e5fe 423e 3f59 42bf
00000010: 347d 1bbe acea 533e 95ce 9cbd fd35 0f3e
00000020: 80a3 e93d 6907 bcbe 1cc6 b1be 9216 58be
00000030: c09d c3bd eecf 353d 582c 01bf 2690 dbbe
00000040: aaa9 1f3c 2f2e fe3c b0a1 39be 8bf7 13be
00000050: d2db 8ebe ce2d 03bf 3dcb 84be fcce c03e
00000060: ac4f 8a3e 851d 91be 80a1 b73e 094c 533e
0.4728075 0.2846472 0.19042547 -0.7591743 -0.1518448 0.20694989 -0.0765659 0.13985439
0.11408138 -0.36724404 -0.34721458 -0.2110236 -0.09551573 0.04438775 -0.5045829 -0.42883414
0.009745041 0.031027881 -0.18128085 -0.14449899 -0.27902085 -0.5124177 -0.25936309 0.37657917
0.2701391 -0.28342834 0.35865402 0.20634474
