data.pth (torch, 218858 bytes, 6 tensors)

l1.weight f4 [128, 254]
00000000: 28ee 603d 1090 c1bd e171 5e3d 3466 923e
00000010: 15f1 6c3e 3583 b93e 1a5f 953e 5b7f da3e
00000020: 158f 0a3d 06dd d73e 5dbd 703e d18f 383e
00000030: b7f6 6a3e e3f0 5f3e c3ea dfbc dcc6 14be
00000040: 7fd8 6e3f 5eb1 b13d 3f7f 7b3e 03a9 debc
00000050: bb3b c1bd 421b 2fbe 5641 e0bd 5714 183e
00000060: 6054 76bd 7ab2 243f da92 dc3d b9f3 973e
00000070: c0bc 02be 4f9f e03d c698 edbd 4ff8 2ebd
00000080: d571 b63d 6fc3 0e3e a2c2 3ebe 9660 32be
00000090: 7f39 b33d b79a 813e b8f3 853d 4ef8 913e
000000a0: 55a2 523e f4a6 57bd 8a1c a53e aa5d 1c3e
000000b0: 8e8e 9c3d 2b5a 483e 6584 553e 3c8e 903d
000000c0: c5a0 293a f1dc f13d 362d 74bd 809d 37bd
000000d0: e982 613a 6a72 7c3e db1c 853d abf7 d13c
000000e0: d403 a4bd 1c8e a93b 8280 15be 1f36 0fbd
000000f0: 2bb2 8b3e f039 10bd 7f9f 8a3e c5da 1a3f
00000100: 28ac 063e 7254 1c3e f78e 18be 86b3 6ebd
00000110: 9a38 8f3c 917f 013e 612e d73d ef9f df3d
00000120: 303f 5a3e 7a4f 3a3e f217 003f b007 61bc
00000130: 5b96 453e b20e 8f3e 2266 9dbc e146 44bc
00000140: fbee b23d 7e64 8e3d e09e 523f 2c25 d2bd
00000150: 58cb 17bd 8568 d03c 3bc3 a03d 5605 033f
00000160: 4704 40bd 44ad 943d 5f7f 8cbd c9d8 643e
00000170: 5fe9 04be 522e f93e 923c 1c3e cac6 84be
00000180: 9dbe dc3a 4659 f43d 53d8 3f3e 5034 05be
00000190: 462a 05be 33cc 43be c583 f33d 6865 693e
000001a0: 44cb 453e dd28 ec3d 4280 0f3f 9c04 9b3e
000001b0: 4a87 413c f879 d9bc 65ac 4b3e c3e9 723e
000001c0: 1998 db3d 53ca b0bd 6446 10bd 7148 063e
000001d0: c949 57bd 876e 35bd 72f8 d03e 9198 1c3e
000001e0: fbb8 5ebe 1557 d63d 4ae5 f53d 321b 013f
000001f0: c5ac 503e bf44 8c3d b32e 6a3d 2f0c 9ebc
00000200: 045b b43d 1693 8e3e 84cb ba3e 77e6 be3d
00000210: 8d2b 2c3e 98dd 8eba e055 5d3e 6d43 b3bd
00000220: 7897 e5bd 7ba0 b93b e18c 213d f026 823e
00000230: 3cbf 243e 4b5f 0cbe fffe 853b c195 f5bd
00000240: 7549 ddbb 6d3f 103f 0afd 7dbd d2f9 3a3e
00000250: 46f2 66be 1445 40bd ce01 c73d bd5c 90bd
00000260: ba9e 813e dfbc 623e 1c3c ac3e 6dd9 fe3d
00000270: 2db4 7dbd b5a0 fcbc 8cec 1b3e a622 fabd
00000280: 51a3 51bd f9e8 21be 1771 1c3f 1c6c a93e
00000290: 4099 8b3e 5524 3f3e 8450 4f3e eac8 273e
000002a0: 6a81 4dbd 31e0 e33e b76b 163e ac8b 753e
000002b0: 180a 02be 151a 17be 51da 2fbe b1b1 e9bd
000002c0: d9fa 68bd 6e03 07be a8b0 093e 6b3b 043e
000002d0: f6d0 15be 59a7 02be 4424 9dbd c481 0fbd
000002e0: 984d dd3d d5c1 243d a574 bbbc 0c69 b5bd
000002f0: 8141 4dbd a01e ae3d b700 a93d e415 94bc
00000300: ae17 683f 6e8f 803d d44f b73e 3a17 04be
00000310: 0020 38bc ae68 a8bd 4634 143f e4ae f33e
00000320: bc9a a1bd 1f01 ef3d db29 533e f97c 903e
00000330: 9c0a 173e 2008 7e3e d74c 26bd 05c5 703f
00000340: 7112 2bbe 48e5 a1bc 3886 cdbe 720d d93e
00000350: 8fc7 8a3d fa26 b23d c039 dd3e 478d 073e
00000360: 36dd 6abe 673d e03d f6cb b73d 4d65 2dbd
00000370: 6d0d 25be e520 e93d c7c7 343e 13e9 953d
00000380: abe0 173e 500c d13d f3d6 b73d b6ed 28bd
00000390: 0ebd b63e ed91 29be 9808 a8ba 89cd 923e
000003a0: db0a 8bbd 7697 9ebd 2a04 6c3d a2da 11be
000003b0: dd90 013d 4e12 cd3d 12e6 a2bc e5f5 eabb
000003c0: 755f 64bd d0df 05be 8e20 493d 8267 c63e
000003d0: b336 a93d 07e3 af3d 54ae 38be 72eb 06be
000003e0: 9b75 e9bd 95f2 033e d59e 0fbd 0078 423e
000003f0: cfef 88be 459b 483e 4931 a63e b532 7b3d
0.054914623 -0.09451306 0.054307822 0.285936 0.2313884 0.36232916 0.2917412 0.4267529
0.03382786 0.42160815 0.23509736 0.18023612 0.22945677 0.21869235 -0.027333623 -0.14528984
0.93299097 0.08676408 0.2456026 -0.0271802 -0.09435221 -0.17100242 -0.10949962 0.14851509
-0.06013906 0.64334834 0.10770197 0.29678133 -0.12767315 0.10967886 -0.11601405 -0.042717274
0.089084305 0.1394174 -0.18628934 -0.17419657 0.08751201 0.2531335 0.06540626 0.28509754
0.20569737 -0.052649453 0.32248336 0.15270105 0.07644378 0.19565646 0.20851286 0.07058379
0.0006470795 0.11809719 -0.05961343 -0.044827938 0.0008602576 0.2465302 0.06499644 0.025630793
-0.08008543 0.0051744115 -0.14599803 -0.034963723 0.2728437 -0.035211504 0.2707481 0.60490066
0.1315161 0.15266588 -0.14898287 -0.058276676 0.017483044 0.12646319 0.10506893 0.10919177
0.21313167 0.1819438 0.5003654 -0.013734743 0.19295637 0.279409 -0.01921374 -0.0119797895
0.08736988 0.06952761 0.82273674 -0.10260996 -0.037059158 0.025440464 0.07849737 0.51180017
-0.04687908 0.0725961 -0.068602316 0.22348322 -0.12979649 0.48668152 0.1525748 -0.25932914
0.0016841475 0.1193109 0.18734865 -0.13008237 -0.13004407 -0.19120865 0.118903674 0.2279259
0.19315821 0.115312316 0.5605508 0.30276954 0.011812041 -0.026547417 0.19889982 0.23721986
0.1072237 -0.0863234 -0.03522338 0.13113572 -0.0525606 -0.04429486 0.4081455 0.15292574
-0.21750252 0.10465828 0.12006624 0.5043212 0.20378406 0.0684905 0.057173442 -0.019292919
0.08806422 0.27846593 0.36483395 0.093213014 0.16813488 -0.001089978 0.2161479 -0.08753095
-0.11210531 0.0056648827 0.039440993 0.25420332 0.16088575 -0.13708226 0.004089236 -0.11991454
-0.0067531415 0.5634678 -0.062008895 0.18259361 -0.22553357 -0.046940878 0.09717141 -0.070489384
0.2531641 0.22142361 0.3363961 0.124438144 -0.061939407 -0.03083835 0.15226954 -0.1221364
-0.05118114 -0.15811528 0.6111006 0.33090293 0.27265358 0.18666203 0.20245558 0.16385236
-0.050172247 0.44506982 0.14689527 0.23979062 -0.12699163 -0.14756043 -0.17173125 -0.11410845
-0.056879852 -0.13184902 0.13446295 0.12913291 -0.14630494 -0.1275915 -0.07672933 -0.035035864
0.108058155 0.040223915 -0.022882769 -0.08857927 -0.050111298 0.08501935 0.082520895 -0.018076845
0.9066113 0.06277357 0.35803092 -0.12899485 -0.011238098 -0.08223091 0.5789226 0.47594368
-0.07890841 0.11670136 0.20621435 0.28220347 0.14750141 0.24807787 -0.040600624 0.9405063
-0.16706254 -0.01976265 -0.40141463 0.4239307 0.06776344 0.086988404 0.43208122 0.13237487
-0.22935948 0.109492116 0.08974449 -0.042332936 -0.16118403 0.11383227 0.17654334 0.07319846
0.14831798 0.102074265 0.08976545 -0.041242324 0.35691112 -0.16559573 -0.0012819944 0.28672436
-0.0678918 -0.07743733 0.05762116 -0.14243558 0.031632293 0.10013257 -0.019885097 -0.007170426
-0.055755097 -0.13073659 0.049103312 0.38750845 0.08262386 0.08588224 -0.18035251 -0.13175753
-0.113993846 0.12885506 -0.035063583 0.18991089 -0.2674546 0.1959048 0.32459477 0.061327655

l1.bias f4 [128]
00000000: a9c6 a93b 5b5a 273d 1865 a93c f7b5 853d
00000010: 60fa 2fbc c390 6dbb 8891 a43d 3055 023d
00000020: 7e3a 653e 5205 38bc 93b4 053e cf8e d23d
00000030: 76cd 4c3c ac6f 32bd c23d c53a cd38 0f3d
00000040: 6f6b ff3d 16cb 853d 9388 103c a0b7 353d
00000050: 6ae2 2fbc 6887 043d 5c0c 113d 8fe3 ba3d
00000060: c210 b43b ced7 453e bf1d 1d3e bfb3 073e
00000070: 1521 d33d df81 4fbd 3855 ab3d a2bd 473d
00000080: 21e2 803d f734 893d 6859 d23d 8a79 a5bb
00000090: a10f 28bd 5ab2 a6bd 84b2 893d 3e14 25bd
000000a0: aa3b 1037 867c 503e 6ad0 5f3d 5df7 c93d
000000b0: 23b8 a63c e566 013d 230a 90bc a53a 893d
000000c0: 4b7f 563e 2991 043e 4096 bebc 2f55 6d3d
000000d0: fd8a c83d 0228 2f3e 8935 4fbd ca6f 513d
000000e0: 0b62 da3d 0a85 91bc 6849 a43d c132 4fbc
000000f0: e972 b43d ab61 173d 0a37 383e 57f8 123e
00000100: c548 323d b02d 5a3d e054 f03d 5768 613e
00000110: 48fc 97bd aa7a f33d bf09 4a3c 713a 5c3b
00000120: 497c 96bd ba25 a5bd 5400 093c fd67 063e
00000130: 5101 db3d d95c 523d 9d53 223d 14a6 613c
00000140: 4c21 b33d 7495 fe3b 1e03 2f3d f60b adbc
00000150: 6567 8638 7c72 0d3e f9da a03d 9e65 61bc
00000160: 46c0 553e eff9 193d 6f19 993d 836e eb3d
00000170: 14a3 923c d4c0 b8bd 19d0 983d 2bb4 6c3d
00000180: 8ca9 243d 001a 053e 96d3 f23d 5240 a0bc
00000190: 212e b23d 70c9 863d 49e7 83bc 9233 953d
000001a0: 9a8b fa3c 5806 9f3d 5d75 6f3d 0bbb 56bd
000001b0: 9411 9f3d 5e08 1a3d d473 e33d debd 3e3e
000001c0: 67f3 53bc 6d10 543e 5a23 063d 37bf 9ebd
000001d0: 9d2f 3a3d a230 1cbd 69b8 013e 3c36 113e
000001e0: 21a7 f03d d594 103e 7ab1 95bb 9727 b03d
000001f0: f664 cc3d 4239 923d a261 923d acde 863d
0.005181153 0.040857654 0.020678088 0.06528848 -0.010740846 -0.0036249615 0.080355704 0.031819522
0.22385594 -0.011231737 0.13057165 0.10281145 0.012500158 -0.04356353 0.0015048312 0.03496628
0.12471663 0.06532876 0.008821624 0.04436457 -0.010735134 0.032355696 0.035412177 0.091254346
0.0054951617 0.19320604 0.15343378 0.13252161 0.10309044 -0.050660964 0.083658636 0.048764832
0.06293131 0.06699555 0.10270959 -0.005049889 -0.04103053 -0.081394866 0.06723502 -0.040302508
8.5969605e-06 0.20360002 0.05464212 0.09861634 0.020351475 0.03159227 -0.017582959 0.06700639
0.20946996 0.12945999 -0.023265004 0.057942566 0.09792135 0.17105106 -0.050588164 0.051132
0.106632315 -0.017763633 0.08021814 -0.012646378 0.0881098 0.036958378 0.17989746 0.14352547
0.04352643 0.053266227 0.117349386 0.22012459 -0.07421166 0.11888631 0.012331425 0.003360417
-0.07347924 -0.080638364 0.008361895 0.13125606 0.106936105 0.051358078 0.03963052 0.013772506
0.08746585 0.007769281 0.042727582 -0.021123867 6.408877e-05 0.13813204 0.07854266 -0.013757138
0.20874128 0.03759187 0.07475554 0.11495688 0.017900027 -0.09021154 0.074615665 0.05778901
0.040200755 0.129982 0.11856763 -0.01956192 0.08700205 0.0658139 -0.016101496 0.07285227
0.030584145 0.07764882 0.058461536 -0.05242447 0.07767025 0.037605636 0.11106077 0.18627116
-0.01293645 0.20709391 0.032748558 -0.07751315 0.045455564 -0.038132317 0.12668003 0.14180845
0.11750627 0.14119275 -0.004568276 0.08601301 0.09980194 0.07139827 0.07147528 0.0658544

l2.weight f4 [128, 128]
00000000: 60dc b5bd b46f 2bbe 648f dfbd 2692 9f3e
00000010: 5216 b43e 9b69 7dbc ed81 2a3c 377c 24be
00000020: 450b a63e 1e68 a33e 472b 0bbb 60a3 723e
00000030: 2015 40bd aee0 71bd 3a3e 5c3e 1c40 03be
00000040: 2035 8f3e 385d d93c 3875 0d3e 3ad7 aabd
00000050: 4dd3 6b3e 3750 ebbc 91fa cd3e 4403 b93e
00000060: 2917 923e 88ef 8bbd 63f6 81bd 9dc4 09bd
00000070: eabe dc3e 5b50 efbb aef4 e2be 4403 0f3e
00000080: 1a97 d03e 2526 58be f2b5 e43d 07ee dcbd
00000090: 4e40 38be b212 ad3d 285a 583e 7e0e ae3e
000000a0: 07c0 f9bd 06ef aa3e e308 c63e 658d 1d3f
000000b0: bca6 263e c13d 7f3e 464f ba3d 4b8f 923e
000000c0: c2c5 b23e 10aa dbbc 80d4 073d f1b8 273e
000000d0: 1720 af3e d0f0 ae3e fe47 1b3f 8b6e 2d3f
000000e0: 82be 96be 3f56 23be 17b7 9c3e 726a eb3e
000000f0: 7701 f73e 71e5 65bd 9099 2a3f 810e a33e
00000100: 9b8f 30be 5379 c3be 6f55 bd3d ec04 003f
00000110: 96e6 2a3e b893 e3bd 5aeb 67be f8d4 8d3e
00000120: 9509 fabd af46 c03e c7e8 efbb 68d6 303e
00000130: 9718 763e 760f e83d d0ed 55bc 31a0 c33d
00000140: 66fc 2f3e 309a cd3e 45ae cd39 ec34 063e
00000150: 1a47 81be 0cf7 7cbe 8abd 1eba a3df a63e
00000160: f4ea 723e 9b23 0a3e 7363 d43d 627b 363e
00000170: 442f 113e 2d86 3abc c482 8abd 8562 d13d
00000180: 9473 eb3c 382b 8a3e 57b1 203f 678c d1bd
00000190: 3e1f 053f 96ad 2f3e c92b bfbd e6fb 933e
000001a0: 7bf8 293d 8d67 b63e 014b 613d 1aa5 85be
000001b0: 009d 2ebe fe28 a2be 2572 5abd 6a2c 683e
000001c0: 730a bb3e f75c da3e ab37 89be b8ea 54bd
000001d0: b15d fa3d daec 543d 9571 983e 177e 1e3f
000001e0: b855 c13e d69f b13e 5302 d23c cb25 863e
000001f0: ff15 183e 1810 813e 336a a63e 1fe6 a3be
00000200: c362 293e 3f17 843e 5b0b 0abe 1e22 c33e
00000210: b2b0 a43e 2fa4 f7bd 8092 41bd f6ac 1a3e
00000220: 23eb 1abd d067 203e f3a4 2b3e 3ef5 813e
00000230: eb51 053f 4bd8 8a3c e5cb a2be 6cfe 833d
00000240: 3eb5 b03e 6b6b 37be 7651 9dbd b1c6 133e
00000250: 29ef 473e c318 ccbd c126 e3bd dc39 5c3e
00000260: d5a8 3cbe 8e90 aabd 07cc 1abd 5aab 43be
00000270: 27c5 5dbe 7815 6e3d c43a d43e 3f8b a9bd
00000280: 1460 2f3e 4f15 8bbe 17e3 523e 2160 9ebd
00000290: 2961 163e a6a1 bfbd 407c 5cbe 8ee3 a43e
000002a0: 4588 1f3d 8514 893e 4761 36be b9db 1b3e
000002b0: ad29 453d 6047 d53e e2c0 903d 5a65 b63c
000002c0: ae44 763e 3dd6 913d 6a6d 663d 36e8 fa3e
000002d0: 7878 00bf 8e39 85be e7f5 d13e c77c 13be
000002e0: f13f ac3e 696b 9a3e 727e bf3e a59d e13e
000002f0: c2b7 6ebd 9e31 31be c3a1 1a3e 4beb 68bd
00000300: dd35 3a3d 7687 08bd 7c49 9fbe 6067 ca3e
00000310: e22f f43e c4c2 d33d c837 4e3e 6583 c0bd
00000320: eadc 6fbe e5b2 e0bc 08bc c43d 74a8 ad3e
00000330: f903 113e 62df 68bc 6c84 b73d 36c3 88be
00000340: 248e 90be 05e3 f23c c771 66bc bd54 c63e
00000350: 52ac 54b9 2a8a f13d 5c8f e63d bc50 033c
00000360: 8f12 db3d 01ef 51bd 6b62 3e3e 9671 0bbe
00000370: 7afe 613e bf38 413e 11b5 9f3e 7534 c6be
00000380: 92d7 893e d39d 363e 7513 083f 0aeb 443e
00000390: c681 ad3c 99b0 aabe 3d6b 3e3e 1456 b33d
000003a0: b644 4bbe 622b db3e 6fc6 bd3d f451 a03d
000003b0: 56a7 1a3e 90e3 a13e 0f2b a33c e574 f83d
000003c0: 50ee 26be c764 553d 33ab 8bbc f8f8 57be
000003d0: 1d31 e5bd 7ce1 89be 7d8e 89be 412f c2bd
000003e0: d4ec 8c3e d80c 7d3e 0226 2bbe 89b3 57bc
000003f0: 095c 863c 54c4 7d3c ab2a 443e 8e53 8d3e
-0.08879924 -0.1674183 -0.109160215 0.3116619 0.3517328 -0.015467073 0.010406953 -0.16063009
0.32430473 0.31915373 -0.0021235512 0.23695135 -0.046895146 -0.059052162 0.21508113 -0.12817425
0.2797022 0.026533708 0.13814247 -0.083418325 0.23029824 -0.028724773 0.4023023 0.36135304
0.28533295 -0.06832796 -0.06345823 -0.03363477 0.43114406 -0.0073032803 -0.443273 0.1396609
0.4074028 -0.21108301 0.11167516 -0.107875876 -0.1799328 0.084508315 0.21128142 0.33995432
-0.121948294 0.33385485 0.38678655 0.61543876 0.16274542 0.24925901 0.090971515 0.2862495
0.34916502 -0.02681449 0.03316164 0.16379143 0.3420417 0.341681 0.60656726 0.677468
-0.2944222 -0.15950869 0.30608436 0.4597965 0.48243305 -0.056127016 0.6664057 0.31847003
-0.17242281 -0.381785 0.09244811 0.5000751 0.16689524 -0.111121595 -0.22648373 0.27701545
-0.12208859 0.37553927 -0.0073214504 0.1726929 0.24032818 0.11331074 -0.013057187 0.095520385
0.17186126 0.40156698 0.00039230488 0.13106126 -0.2524956 -0.24703616 -0.0006055465 0.32592496
0.2372244 0.13490145 0.10370531 0.17820504 0.14178187 -0.011384529 -0.06763223 0.10223869
0.028741635 0.26986098 0.627706 -0.10231858 0.52000797 0.17156062 -0.09334523 0.2890312
0.041496735 0.35625878 0.05500317 -0.26102525 -0.17052078 -0.316719 -0.053331513 0.22673193
0.3653141 0.42649052 -0.26800284 -0.051981658 0.122249015 0.05198369 0.29774156 0.6191115
0.3776071 0.34692258 0.025635874 0.2620071 0.14852141 0.2520759 0.325029 -0.32011506
0.16541581 0.25798985 -0.13480894 0.38111967 0.32166058 -0.120918624 -0.047258854 0.15105042
-0.0378219 0.15664601 0.16762142 0.25382417 0.5207812 0.01694884 -0.31796184 0.064450115
0.34513277 -0.1791207 -0.07681553 0.14431264 0.19524826 -0.099656604 -0.11091376 0.21506447
-0.1842378 -0.08328353 -0.037792232 -0.19108334 -0.21657239 0.058125943 0.41451085 -0.08278512
0.17126495 -0.27164695 0.2059444 -0.07733179 0.14685501 -0.09357004 -0.21531773 0.3220486
0.038948316 0.26773468 -0.17810546 0.15220536 0.04813545 0.41656017 0.070680395 0.022265125
0.24049637 0.07120941 0.05625669 0.49005288 -0.5018382 -0.26020473 0.4100792 -0.14403068
0.33642533 0.30160072 0.37401158 0.44065586 -0.058280714 -0.17304084 0.1510077 -0.056865018
0.045461524 -0.03333231 -0.31110752 0.39531994 0.47692782 0.10339883 0.20138466 -0.094000615
-0.23424116 -0.027429054 0.096061766 0.33917582 0.14161672 -0.014213415 0.08960804 -0.26711434
-0.28233445 0.029649267 -0.014065213 0.38736525 -0.0002028209 0.11793931 0.112578124 0.008014854
0.10696899 -0.051253323 0.18592231 -0.13617548 0.22069731 0.18869303 0.3119283 -0.38711897
0.2692228 0.17833643 0.5315469 0.19230285 0.021180045 -0.33337858 0.18595596 0.087566525
-0.1985043 0.42806536 0.09266364 0.07828131 0.15102896 0.3161893 0.019917993 0.12131671
-0.16301847 0.052098062 -0.017049408 -0.21091068 -0.11191008 -0.26929843 -0.26866522 -0.09481669
0.27524436 0.24711931 -0.16713718 -0.013165363 0.016401308 0.015488703 0.19156902 0.2760281

l2.bias f4 [128]
00000000: 020d f93c 1087 3f3c f795 09bb bdab 0fbe
00000010: 5793 4c3d f292 ddbd 21c4 f7bc b601 6cbe
00000020: 2844 0e3d cebf c6bd 8331 ecbd 121c 01be
00000030: bd24 b4bd 37e2 87bd 75b9 f0bd 1ed5 62be
00000040: c431 66be a6a7 c8bc 0830 c63b 45dc 1cbe
00000050: 9174 14be 90ca 17bd 8fb6 8f3c c797 a13d
00000060: 9cae 02be 1df2 aebd 053b 83bd e87c 66be
00000070: b84b a6bd 6ead 12be 7100 ccbd 8e27 04bd
00000080: b50a cebd 0352 23be cdfb 09be 895d 5dbd
00000090: f6a3 02be 3404 b4bd 80ed 7cbd ca28 8f3e
000000a0: afa1 41bd 9786 b43c def1 15be 0047 95bd
000000b0: 0c46 ad3d 5823 80bd 3f71 0dbe 195d d9bd
000000c0: 70d6 a63d 443f adbd 967e 1bbe fbda e63c
000000d0: b14b 8fbd bf0a c2bd e067 ba3d 4ccc 02bb
000000e0: 8a4d 01be 0660 ccbd 2c23 00be 894d 30bd
000000f0: 21dd 2bbe aa64 24be 50d2 9dbd 6de4 d6bd
00000100: d8d7 5a3d 6a2a 393c b3f8 723d 6e49 95bd
00000110: 52e4 12be 4ac5 5e3d 2263 7bbd 8504 f83c
00000120: 1fe4 2ebd 1e2c 0d3d 4cbb c6bc 007b d6b9
00000130: abf6 be3c dfbc eabc f01f 0f3b 412e 58bd
00000140: efec e4bd e9e5 39bc 39c1 a0bd 886b 84bd
00000150: 2121 56be b8d2 7a3d 0634 7e3d 5793 cdbd
00000160: 2859 d63b 479a 06be 3b96 e3bd 1873 9abd
00000170: 1ad3 033c 3092 253e 3e56 883d a5ac bbbd
00000180: 1494 3bbe 2fa8 aabd 73b1 25bd 7de4 3abe
00000190: 5bcc 963e d922 813d 369b 813c 9dc3 96bc
000001a0: b063 97bd 812d b7bd b5fe 2e3e 3a3c dcbd
000001b0: 4f3f a13c e459 11be 6b5b 19be a833 1cbd
000001c0: 72ca a2bd a9f6 7abd d63d e0bd aaaf 88bd
000001d0: 318c d3bc 68b0 5cbc d25b e2bd 324b c1bd
000001e0: 04ef c2bd 7335 3cbc df0e c5bb c7c0 94bd
000001f0: d93f 09bd 875e 22be c31b 73bd f751 15bc
0.03040171 0.011689916 -0.0020993927 -0.14030357 0.0499452 -0.10819043 -0.030244889 -0.23047528
0.034732968 -0.097045526 -0.11532881 -0.12608364 -0.0879607 -0.06634944 -0.11754123 -0.2215161
-0.22479922 -0.024494004 0.0060482062 -0.15318401 -0.14497592 -0.037058413 0.017543105 0.07890277
-0.1276192 -0.08542273 -0.064077415 -0.22508585 -0.08119911 -0.1432397 -0.09961022 -0.032264285
-0.10060636 -0.15949254 -0.1347496 -0.05404428 -0.12757859 -0.08789864 -0.061749935 0.27960807
-0.047273334 0.022036834 -0.14643046 -0.07288933 0.08460626 -0.06256741 -0.13812731 -0.1061346
0.081463695 -0.084593326 -0.15185007 0.02818059 -0.06996859 -0.09474706 0.09101844 -0.0019958196
-0.12627235 -0.099792525 -0.12513417 -0.043042693 -0.16783573 -0.16054025 -0.077061296 -0.104927875
0.0534285 0.011301616 0.05931921 -0.07289396 -0.1434491 0.05438737 -0.061373837 0.030275593
-0.042698022 0.0344659 -0.024259232 -0.00040908903 0.02331098 -0.028654514 0.0021839105 -0.052778486
-0.11178004 -0.011346319 -0.07849354 -0.064658225 -0.20911075 0.061236113 0.062061332 -0.100378685
0.00654139 -0.1314479 -0.111126386 -0.07541484 0.008045936 0.16169047 0.066570744 -0.09163789
-0.18318206 -0.0833286 -0.040452432 -0.18251224 0.29452786 0.06305475 0.01582108 -0.018403823
-0.07392061 -0.08944226 0.1708935 -0.10753675 0.019683508 -0.14194447 -0.1497628 -0.0381352
-0.0794877 -0.06127039 -0.10949294 -0.0667413 -0.025823684 -0.013469793 -0.110526696 -0.094381705
-0.09518245 -0.011487353 -0.0060137357 -0.07263332 -0.033508155 -0.15856372 -0.059352648 -0.00911378

l3.weight f4 [31, 128]
00000000: 739d 4fbe 2858 c43d 2040 33bd 3f40 b53d
00000010: 26e3 5d3e 048a 313d 358d 8bbd 7320 043e
00000020: 26be 6fbf 496b 70be 2134 84be dad3 66bd
00000030: 9c11 d53d 9ace 84bd aaed e1bd 0640 85be
00000040: 7389 673c 3382 b7be dbae 4b3d 6303 a8bf
00000050: 8277 7ebf 9d12 3cbe c4c4 f9be 0bd9 8dbd
00000060: 0130 ae3c 1fa0 b6be 1894 c03d c144 e0be
00000070: 89bb a0be a9b9 acbd fbba a0bd 6e0c 93bf
00000080: 84ef 56bf 8637 08bf 1911 04bf a537 28bf
00000090: 7cea f5bd 203f ebbe dcb0 333e 7f00 61c0
000000a0: 8c92 0c3e a0cc f83d 9c13 0b3e dfd6 d73d
000000b0: 0cc2 2e3e 72aa 033e 01d1 abbd beaf 38bb
000000c0: d299 423e 3ae2 bdbe 6e5b 1d3e ca4d 233e
000000d0: 9f00 2c3e 1902 e8be c2cb 81bf 4780 52bd
000000e0: 5f83 893e c2dd 7a3d 865e 36bf 881c 623d
000000f0: 19b4 8abe cbc1 0f3d 36c0 5ebe 3472 23bf
00000100: bb82 80be ba37 f33d 6932 2fbe 349b d1be
00000110: 20f4 f6be fe18 abbb fe43 b3bd 1e80 a2be
00000120: bbc5 44bf 4dab 043e dc9a 26bf 1bd3 ef3c
00000130: b9cd a63d b4c7 613d d12a e93d d0ac 433d
00000140: d4a4 b1be ac69 76bc e2bd f6be 6b33 3fbb
00000150: f0d2 56be 75b2 8c3e ce53 c1bc 065b a73e
00000160: 58b5 8cbd e19d 53bf a950 b4be 9585 58be
00000170: d2ee 7dbf 706b 8bbf c70c 96bf 7cf4 a73c
00000180: 70ca 003e 7284 3d3d 6391 c43d 9ec6 083e
00000190: 5662 a8bf d81c 8abd b85b 933e 1a89 0dbf
000001a0: a13a 2f3d acf6 3e3e bf3d 12bf 7e56 fbbe
000001b0: a515 dfbc 015a 76bf 477b 1fbf 8533 37bf
000001c0: 1724 f5bf f2b9 abbf 5013 0bbe 0086 d139
000001d0: 3ed2 013d b51f 613e edf1 f5be 3302 843c
000001e0: db92 4cbd 0494 87bf 5dab 4abf f701 503d
000001f0: 2c03 b33c 04d9 34bf 13be 1fbd b167 023d
00000200: 9752 1ebd 09b4 6ebe 3365 97be 5fb2 7abc
00000210: e22a f0bd 3283 9fbd 4be3 2b3d 0602 8fbd
00000220: 3e00 09bf b4bd 0a3d 1294 7c3e 0ea9 3cbd
00000230: bf0f 92be e08e 20be cafa 82be 42f8 9dbe
00000240: c396 e7be 8819 68bd 0343 fabd 3523 ccbe
00000250: 3dfb 7ebe 0612 b0bd 9b42 2fbe 1a8d 3c3c
00000260: a9ea 62bc c2a6 e03d 625b 14bc 3b19 07bf
00000270: 94cd 03bf 9c4f 84be 7cc1 c23c 1192 dbbf
00000280: 538d 64bf 22b7 d4be 14fb d5bd 4596 0ebe
00000290: 619d cb3d 6112 96be 1203 35bd d190 40c0
000002a0: 04c5 46bf be6f 713c b175 75be b1e7 113e
000002b0: f5f8 223e 14a1 cdbd 0d61 74be 1f87 26bd
000002c0: 9cca 623d 9947 d9bd 28cc 273d 6b09 07be
000002d0: e760 dbbe 7ba7 683c 5c6c 89bf a211 1fbe
000002e0: 72aa a7bc 8ee0 84be da99 55be fa9f 23ba
000002f0: f71d bfbe 704e 95be 73a6 22be caac 43bf
00000300: ab85 94bf d639 453e 0247 1a3e bbf4 1cbf
00000310: 20e3 293d 26e7 9b3d 28c1 e53c 2f90 90bb
00000320: c868 b2bf 87df 073e f8a5 99be e872 97be
00000330: 9b83 8abd 05c9 3c3e 2bc5 42be 0e85 d9be
00000340: 930f 0dbd 88d2 d8bd 04a7 85be 7cee 073e
00000350: 87c5 ec3d 6d76 d33d a40f 073e b2bd 04be
00000360: 3f88 013e 46a8 61bf 87af e53d 5693 13bf
00000370: 2fb5 60be 0e6f c1bf 309d 95bf d140 80bd
00000380: fec7 913d 0f83 68bf fe1f 3ebd b33e 12bf
00000390: 4585 91bf 68e4 95be 84c8 9ebd 018e 08bf
000003a0: 3b56 aebd 180f a6be 4878 01be 8d06 a83d
000003b0: 0501 5ebe 820e 01be 05cf 5abf 2340 febe
000003c0: ed40 7fbf 8d3a 93bf 8f02 e8bb 0123 7abd
000003d0: 8e81 37bf c44d 983d a226 e2be 163b a4bc
000003e0: 3ed5 2ebd 210c cdbf 348f 17bf cbbe b2bd
000003f0: c46d 8fbe b5d1 87be aa5c b9bd 474a 003e
-0.20274906 0.09587127 -0.043762326 0.088501446 0.21668682 0.043344513 -0.068140425 0.12903003
-0.9364952 -0.23478426 -0.2582102 -0.05635438 0.10403749 -0.064847186 -0.11031659 -0.26025409
0.014131892 -0.35841522 0.049727302 -1.3126034 -0.99401104 -0.18366475 -0.48782933 -0.06926163
0.021263124 -0.35669038 0.09403247 -0.43802455 -0.31393078 -0.08433849 -0.07848164 -1.1488168
-0.8395922 -0.5320972 -0.5158859 -0.65709907 -0.12007615 -0.45946598 0.17547935 -3.5156553
0.13727778 0.12148404 0.13581699 0.1053903 0.1706621 0.12857988 -0.08389474 -0.0028180922
0.1900399 -0.3708666 0.15366909 0.15947643 0.16797112 -0.453141 -1.0140307 -0.051391866
0.2685804 0.06124664 -0.7123798 0.05520299 -0.2709053 0.035096925 -0.2175301 -0.63846135
-0.2509974 0.118758634 -0.17109074 -0.40938723 -0.48233128 -0.005221485 -0.08753203 -0.3173837
-0.7686421 0.12955971 -0.65080047 0.029275468 0.08144707 0.055122092 0.1138512 0.04777223
-0.34696066 -0.015039843 -0.48191744 -0.0029174935 -0.20978904 0.27479902 -0.023599532 0.32686633
-0.06870526 -0.8266278 -0.3521779 -0.21144708 -0.99192536 -1.0892162 -1.1722649 0.020502321
0.12577224 0.046268888 0.09598043 0.13357016 -1.315501 -0.06743783 0.28780913 -0.55287325
0.042780522 0.18648785 -0.5712547 -0.49089426 -0.027232 -0.96231085 -0.6229748 -0.7156299
-1.9151639 -1.3416121 -0.13581586 0.00039963424 0.031694643 0.21984752 -0.48036137 0.01611433
-0.04994474 -1.0592046 -0.7916773 0.050783124 0.021852098 -0.7064364 -0.03899963 0.03183717
-0.038652983 -0.23310865 -0.29569396 -0.015301316 -0.11726929 -0.077886954 0.04196481 -0.06982808
-0.53515995 0.03387232 0.2466586 -0.04605966 -0.28527638 -0.15679502 -0.25581962 -0.30853468
-0.4523221 -0.056664973 -0.12219813 -0.3987061 -0.24900527 -0.08597188 -0.17115252 0.011508251
-0.013849893 0.109693065 -0.0090549905 -0.52772874 -0.5148556 -0.25841987 0.023773901 -1.7153951
-0.89278144 -0.4154597 -0.1044828 -0.13924511 0.09942127 -0.29310897 -0.04419238 -3.008839
-0.7764437 0.014736114 -0.23970677 0.1424854 0.15915282 -0.10040489 -0.23865147 -0.040656205
0.055369005 -0.10609359 0.040966183 -0.13187186 -0.42847368 0.014200087 -1.0736194 -0.1553407
-0.020467017 -0.25952572 -0.20859471 -0.0006241795 -0.3732755 -0.29161406 -0.15883808 -0.7643553
-1.1603292 0.19260344 0.1506615 -0.6131093 0.04147637 0.076124474 0.028046206 -0.0044117193
-1.3938227 0.13268863 -0.30009437 -0.29579854 -0.06763383 0.18436058 -0.19020526 -0.42484325
-0.03443868 -0.10587031 -0.26103985 0.13274568 0.11561113 0.10325322 0.1318956 -0.12962988
0.1264963 -0.8814739 0.1121512 -0.5764669 -0.21944116 -1.5112016 -1.1688595 -0.06262363
0.071182236 -0.9082498 -0.04641723 -0.5712692 -1.1368796 -0.29275823 -0.07753089 -0.5334168
-0.08512541 -0.3243339 -0.1264354 0.082043745 -0.21680076 -0.1260319 -0.85472137 -0.49658307
-0.99708444 -1.1502243 -0.007080383 -0.06106854 -0.7168206 0.074367076 -0.441701 -0.020047706
-0.042683832 -1.6019326 -0.59202886 -0.08727797 -0.28013432 -0.2652718 -0.090508774 0.12528335

l3.bias f4 [31]
00000000: 9af0 91c0 c39e 6fc0 0eb7 493d 10ee 4ac0
00000010: a1fa 7bc0 db83 17c0 48fb 41c0 4965 4dc0
00000020: fd69 64c0 3703 0cc0 eb33 d9bf efab 09c0
00000030: 0775 65c0 b551 05c0 c611 23c0 d994 4b3d
00000040: bb97 b3bf 3d0e 35c0 b7f6 24c0 3099 0bc0
00000050: 2b08 40bc 656c 46c0 ef51 55c0 370c 13c0
00000060: 4299 4ac0 8237 69c0 4623 2cc0 484c 21c0
00000070: e23e e4bc 4619 20c0 601e 0ac0
-4.5606203 -3.744065 0.04924684 -3.1707802 -3.9371722 -2.3674228 -3.030962 -3.209307
-3.568969 -2.1876962 -1.6968969 -2.151119 -3.5852678 -2.083112 -2.5479598 0.0497025
-1.403068 -2.828994 -2.5775583 -2.1812248 -0.011720697 -3.1003659 -3.3331258 -2.2976205
-3.165604 -3.644013 -2.689653 -2.5202808 -0.027862016 -2.5015426 -2.158104
