data.pth (torch, 220458 bytes, 6 tensors)

l1.weight f4 [128, 256]
000000 e7 8a 23 3f 60 23 64 3c f3 90 b8 bd a3 bf 4a 3d
       0.63883823 0.01392445 -0.09012022 0.049499165
000010 81 ed 09 3d 33 97 66 3f c7 59 dd 3e 07 d2 30 be
       0.033673767 0.9007446 0.43232557 -0.17267619
000020 f1 73 01 be 4a 6c 6e 3f 34 50 76 be 0b 00 85 bb
       -0.12641884 0.93133986 -0.24054033 -0.004058843
000030 8f 23 9b bd 2c b7 25 bd 1f 15 0b 3e bf 63 a2 3d
       -0.07575142 -0.04045789 0.13582276 0.07929181
000040 c9 8c a0 3e 53 9b c3 3e fe 00 be bd 7b 81 3d 3e
       0.3135741 0.3820444 -0.09277533 0.18506424
000050 e3 46 5e 3e 1f 38 d7 3e 12 76 07 bd 8c 3a 95 3e
       0.21706729 0.42035004 -0.033071585 0.2914623
000060 00 cd 4c bd 8b 64 55 be d9 7b 0b bd 15 14 bc be
       -0.05000019 -0.20839135 -0.034053657 -0.3673407
000070 59 21 c9 3e c5 92 7e 3f d6 4d e0 3e 61 a6 82 3e
       0.39283255 0.994427 0.43809384 0.25517562
000080 e7 2c d6 bc a3 bd ac bd 11 a6 39 3e 9f e5 e1 bd
       -0.026144458 -0.08434608 0.18129756 -0.11030125
000090 2f 27 83 bc 74 eb 4c bd e5 0b f9 bd df 3e 5c bd
       -0.016009895 -0.050029233 -0.12160472 -0.053770896
0000a0 05 c7 0c bd 71 68 56 3d c8 eb ec bd 17 e4 ea bd
       -0.034369487 0.052345697 -0.11568409 -0.11469286
0000b0 da b4 af 3b cd 99 0a be 06 f9 20 be da 8b 3d 3d
       0.0053621354 -0.13535233 -0.15719995 0.04627595
0000c0 71 0b 71 3e b3 3d a5 3e 0a 80 c0 3e 74 b8 c3 3d
       0.23539521 0.32273635 0.37597686 0.09556666
0000d0 c8 d9 79 3b c6 ff 5d 3e 00 ac 00 bd 4c 5d 58 bd
       0.0038124193 0.21679601 -0.031414032 -0.05282335
0000e0 02 57 ba 3e 64 2d 86 bc 78 b5 f2 3e c5 0f 55 3e
       0.36394507 -0.016379066 0.47404075 0.20806797
0000f0 67 7d 00 be bc 64 00 3e 0a ae 91 3e 60 ea 86 3e
       -0.12547837 0.12538427 0.28453094 0.2635069
000100 85 af 6a 3d c8 e7 21 3c 2a e6 1a 3e eb 5b bb 3c
       0.057296295 0.009881921 0.15126863 0.022870978
000110 17 59 10 bd 08 a4 8a bd 97 65 20 3e 94 2c 90 bd
       -0.035241213 -0.06769568 0.15663753 -0.070397526
000120 a7 33 c2 bb a7 6f 42 3e df e3 8b 3e c3 4e 1c 3e
       -0.0059265676 0.18987904 0.2732229 0.1526442
000130 03 7d 6c be e9 87 35 3e c7 30 51 3d 85 d0 a2 3d
       -0.23094563 0.17727627 0.05107191 0.07949928
000140 0a 6b e5 3d f7 9e 4b 3d e8 22 07 be 8d f4 a2 3e
       0.11202057 0.049712148 -0.1319691 0.31827202
000150 00 e7 d1 3d 3a 76 eb 3d 3d 07 08 be 5e 09 a5 3e
       0.10249138 0.11497159 -0.13284011 0.3223371
000160 3c 46 82 bd 61 d2 0f bd 23 50 0a 3e f0 2c dd 3e
       -0.063610524 -0.035112742 0.13507132 0.43198347
000170 c9 97 0d 3f 74 cf af be ae 95 97 3d 23 33 70 3e
       0.5530973 -0.34337962 0.07401596 0.23457007
000180 89 64 68 3e f5 ca ac 3e 77 54 48 3d 31 51 ba 3f
       0.22694601 0.33748594 0.048908677 1.4556028
000190 2d 00 e4 3e 31 60 e6 3e 0b f8 ba bc 1d f8 f3 bd
       0.44531384 0.44995263 -0.022823354 -0.11912558
0001a0 7b 62 9f 3c f8 af 57 3e ec ac fe 3e 4c 84 db 3d
       0.019456139 0.2106322 0.49741304 0.10718593
0001b0 24 b2 8b 3d 50 67 69 3d 19 12 1d be 64 fc 9a bc
       0.06821087 0.056983292 -0.15338935 -0.018919177
0001c0 ca cb bc bd 1a fc 9e 3d fe 7d d4 3c ff 3f f5 3c
       -0.09218557 0.07762928 0.025938984 0.029937742
0001d0 16 e3 d3 bd 8a 28 b2 3d 09 f5 2b be 9a cd 14 bd
       -0.103460476 0.086991385 -0.16792692 -0.03632889
0001e0 2b 73 77 bd 4f af 45 bd 01 53 08 bd b0 4a 27 3e
       -0.060412567 -0.04826289 -0.033282284 0.16337085
0001f0 58 39 9d 3e e2 65 a1 bd f7 68 16 3e 4e 7a 0b bc
       0.30707812 -0.07880761 0.14688478 -0.008513046
000200 3d 36 82 3e bb 08 47 3d 11 79 f2 3e 66 59 02 be
       0.25432006 0.04859231 0.4735799 -0.12729415
000210 62 64 d4 bd 8e 3f 41 bd f7 2b 04 3d 12 81 3c be
       -0.10370709 -0.04717975 0.03226849 -0.18408611
000220 ac 8b db 3d 30 6f 43 3e 8b fc c1 bc 83 0f 21 bd
       0.1072 0.19085383 -0.023679992 -0.039321434
000230 98 76 dd bd c6 b5 1c 3e b4 82 43 bd 30 14 18 3e
       -0.108136356 0.15303716 -0.04773207 0.14851451
000240 32 49 99 3d 55 b2 59 3d 80 9c 53 3e 99 d7 df bd
       0.07484664 0.053148586 0.20665169 -0.10929794
000250 c1 7c 36 be 2a 47 10 be 22 23 c5 3d 45 52 a1 3d
       -0.17821027 -0.14089647 0.09625842 0.0787702
000260 84 5e 13 3d 20 5d 02 3e a1 bf ff 3c 86 00 14 be
       0.03597881 0.12730837 0.031219305 -0.14453325
000270 61 2a 01 be 69 0d 78 3c 86 0d 1b bd 78 00 d8 bd
       -0.12613823 0.015139916 -0.037854694 -0.105469644
000280 23 7e c9 bc 00 75 14 bd 83 23 c3 bd c5 34 96 3e
       -0.02459628 -0.036244392 -0.09528258 0.29337135
000290 01 eb 83 3e 9e 98 55 3e e0 7d 85 bc cc ba ba 3e
       0.2576523 0.20859 -0.016295373 0.3647064
0002a0 f5 db 1f be f5 c7 78 3e 6e e1 7f 3d 65 f2 60 3e
       -0.1561125 0.24295028 0.062470846 0.21967466
0002b0 0c c0 f9 bc 6a e2 fe 3d 71 73 1d 3e cd 68 33 3e
       -0.030487083 0.12445529 0.15376069 0.17520447
0002c0 ca 52 55 3e 0f e7 e7 3e 73 c2 7c 3e d2 b4 0f 3e
       0.20832363 0.4529347 0.24683551 0.14033821
0002d0 fb 84 d9 3c 6b 7c 38 be 33 d4 fb 3d 91 95 e7 3d
       0.026552668 -0.18016212 0.12296333 0.113078244
0002e0 89 19 44 3e bb 00 13 3e 83 9e 4d 3d 3c b2 03 3e
       0.19150366 0.14355747 0.050199997 0.1286096
0002f0 c8 c7 88 be 31 31 22 3e c2 1b 21 3e 40 88 0a bd
       -0.2671492 0.15839078 0.15733245 -0.033821344
000300 cd 6f 8a 3d 2f a8 ac 3d c2 e9 57 3e 11 47 f0 3b
       0.067596056 0.08430516 0.21085265 0.0073326905
000310 d1 06 26 3e 4c f1 4b 3d 35 7c f4 bd 94 ff f0 3e
       0.16213538 0.049790666 -0.11937753 0.4706999
000320 c1 0f db 3e a8 36 98 3e da 85 09 bd fc 22 02 bd
       0.42785457 0.297292 -0.033574916 -0.031771645
000330 81 5c 1f bd c5 34 af 3e ae 0b 05 3e de 22 b8 3a
       -0.038906578 0.34219947 0.12992737 0.0014048477
000340 7d 50 92 bd 63 20 a2 bd 25 21 a6 3d b7 6b ee 3c
       -0.07144258 -0.079163335 0.081117906 0.029104097
000350 d8 f3 7f 3f c2 e6 be 3e b1 ab b9 bd 01 42 e1 bd
       0.9998145 0.3728543 -0.09065951 -0.10998917
000360 7a f5 3c be 2d 5c 01 bd 61 7d 0a be 75 5b 15 3e
       -0.18453017 -0.031582046 -0.13524391 0.1458567
000370 a3 08 35 3d 82 05 06 3e 46 52 a0 3e a5 5b 5f bd
       0.04419769 0.13088039 0.3131277 -0.05453076
000380 45 fe 46 bd ca 3d 83 3d 03 64 a1 3c e3 a8 e6 3c
       -0.048582334 0.0640827 0.01970101 0.028156703
000390 65 67 b3 bd 0e 36 e9 3d 08 cf b0 bd 78 96 89 bd
       -0.08759955 0.11387263 -0.08633238 -0.06718153
0003a0 5d bf 1d bc ac 9c ba bd ee 9e f2 3d d3 a3 f3 bc
       -0.009628144 -0.09111914 0.1184672 -0.029741203
0003b0 ad 90 c1 3d a5 9d 34 3f 65 cd d2 3d ae e8 c9 bd
       0.09451423 0.70553046 0.10293082 -0.09858833
0003c0 cc b5 0e 3e b1 0a 0e 3f 5c ca 30 3e 1a 80 ae 3d
       0.13936538 0.55485064 0.17264694 0.08520527
0003d0 01 6d 9b 3d 3c d8 d5 bd b1 95 c7 ba 23 d2 91 3d
       0.0758915 -0.10441634 -0.0015227107 0.071201585
0003e0 ca 1b 33 3e 94 c4 44 3e b5 13 48 3e d8 9a 05 3d
       0.1749107 0.19215614 0.19538768 0.032618374
0003f0 b3 4e 7a bc 89 f6 45 3f 8d 72 54 3e 4f 45 3a 3d
       -0.015277552 0.7732931 0.20746823 0.045476254

l1.bias f4 [128]
000000 c1 7e 93 bb 89 08 14 3e 3e 91 a3 3c d8 fb 97 3d
       -0.004501194 0.14456381 0.019966718 0.07421082
000010 e8 11 8c 3d a0 22 0b 3e b0 e8 ff 3d 6b 3f 0f 3e
       0.06839353 0.13587427 0.124955535 0.13989036
000020 ba 4c a5 bb 55 8b f6 3c 4c d9 b6 3d fb a5 eb 3a
       -0.005044547 0.030095736 0.08928165 0.0017978543
000030 67 10 bd 3d f2 dd e1 bd 0a f6 35 3e f8 80 48 3e
       0.09231644 -0.11028661 0.17769638 0.19580448
000040 03 eb 81 bc c9 2a 83 3d a4 96 7e 3d 3e fb fc 3d
       -0.015859133 0.06404645 0.06215538 0.12352608
000050 46 75 25 3d 4f ee 3a 3d 3d 53 73 3c b4 04 18 3d
       0.040395044 0.045637425 0.0148513885 0.03711386
000060 5e a7 9d 3d b7 4f dc 3b 61 7c b8 bc d8 9a 81 3d
       0.076979384 0.00672337 -0.022520246 0.06328362
000070 61 f8 4f 3e c5 2e 3b 3d 69 16 6e 3c 69 13 50 3e
       0.20309593 0.0456989 0.01453171 0.20319904
000080 e1 c4 5d 3b ee d7 95 3d 51 99 d5 3d 29 35 34 bd
       0.0033839273 0.07316576 0.104296334 -0.04399601
000090 5d 2a 12 bc e3 da f7 3d b6 f1 98 3d 33 a5 ac 3d
       -0.008921233 0.12102296 0.07467978 0.08429947
0000a0 ac 91 1d 3d 4e 33 23 bc 38 35 a6 3d 3a 23 48 bc
       0.038469 -0.009960962 0.081156194 -0.01221543
0000b0 55 39 f6 3d 2a f5 11 3e e8 f4 f0 3c 66 c8 65 bd
       0.12022654 0.14253679 0.029413655 -0.056099318
0000c0 17 49 25 bb 6b 23 c4 3d 6e e2 83 3d f1 16 cb bc
       -0.0025220567 0.09577068 0.064396724 -0.024791213
0000d0 38 9c 14 3b 09 6c 4d 3d 72 7a 9f 3d 2a 4a 28 3e
       0.0022676121 0.05015186 0.077870265 0.16434541
0000e0 c2 79 68 3d 25 29 0a 3e bf c4 01 3d 86 ad 74 3d
       0.056756742 0.13492258 0.031681772 0.059735797
0000f0 67 53 46 3d 3e f0 ce 3d 53 38 e0 3d 15 42 52 bd
       0.048419382 0.10104416 0.10948243 -0.051332552
000100 6b 11 55 3d 40 21 de 3c 16 95 da 3d 73 31 c5 3d
       0.052018564 0.027115464 0.10672967 0.09628572
000110 78 16 0c 3e 0f f3 85 3d ee f5 20 bc fb 61 83 3d
       0.13680446 0.065405004 -0.009824259 0.06415173
000120 b9 de 96 3d 2d 54 21 3e 6d 6a 7e 3d cb 82 d0 3d
       0.073667 0.15754767 0.062113214 0.10181197
000130 6c c6 bd 3d 17 d0 16 bd fa 04 d0 3d ee 3d bf 3c
       0.092663616 -0.036819544 0.10157199 0.02334496
000140 c1 28 11 3e 8e f8 96 3d cb f0 fe 3d 22 99 91 3d
       0.14175703 0.07371627 0.12448271 0.07109286
000150 fe fa c7 3d cb 6a c5 3d 81 db dc 3d 23 ba 5d 3a
       0.0976467 0.0963951 0.107840545 0.00084582175
000160 08 24 be bc 80 02 11 3e 08 b8 5f 3e 2c 06 34 3d
       -0.02321054 0.1416111 0.21847546 0.0439512
000170 ac 21 f3 3d 02 a8 cf bc e3 27 33 3d 64 4a 9f 3d
       0.11871657 -0.025348667 0.04373921 0.07777861
000180 68 26 ad 3d 8f 89 14 3c 23 dc ed 3d 48 aa 22 3c
       0.08454591 0.009066 0.11614253 0.0099282935
000190 54 2d c4 3d f2 ad e4 3d 48 f6 a5 3d 4e 44 61 3d
       0.09578958 0.1116599 0.08103615 0.05499678
0001a0 6d 6a a0 3d 16 ac 1e 3d d1 96 8a bd 76 4b 8c 3d
       0.07832799 0.038738333 -0.06767047 0.068503305
0001b0 e7 e0 81 3d 6e b1 da 3d c2 cc 27 3d 04 79 9e 3d
       0.06341725 0.10678373 0.040966757 0.07737926
0001c0 34 b0 68 3d 4d 57 07 3e 19 d2 b4 3d c3 12 14 3e
       0.056808665 0.13216896 0.088291354 0.14460282
0001d0 c6 9c 2e 3e 8a 11 a5 3c 0e de 25 3d 4c 06 64 3d
       0.17051992 0.020149965 0.04049497 0.055670068
0001e0 25 e8 1f 3e a8 32 d5 3d 2c 94 24 bd 71 ae 10 bd
       0.156159 0.104100525 -0.04018037 -0.03532261
0001f0 74 8b 77 3d 39 81 b5 3c f8 3d 60 bd 84 b9 03 3e
       0.060435727 0.022156345 -0.054746598 0.12863737

l2.weight f4 [128, 128]
000000 b9 33 34 3c 90 ad 86 bd 37 e6 f9 3d 99 c5 16 3f
       0.01099866 -0.06576073 0.12202113 0.5889526
000010 b5 19 d4 bd 9b 2b 28 bd 12 ed 69 3d 0b 2f 49 3e
       -0.10356466 -0.04105721 0.057110853 0.19646852
000020 af 55 28 3e 9f 88 2e 3e 88 6e 8f 3e ec 1a 67 3d
       0.16438936 0.17044304 0.28014016 0.05642216
000030 94 ef 33 3e 3f 1b ee 3e d9 95 f4 3d fd c2 5b bd
       0.1757186 0.46505162 0.11942644 -0.053652752
000040 b8 5a 69 3e 7b 2d 34 3d 51 2f 1c 3e da 5f 19 be
       0.22788513 0.043988686 0.15252425 -0.1497797
000050 69 94 b7 3e 84 53 05 3e d4 05 2e 3f 07 6f ad bc
       0.35855415 0.1302014 0.67977643 -0.021171106
000060 da 98 4d 3e e3 89 0b 3d f5 cd f0 3d 79 37 d0 bd
       0.2007784 0.034067046 0.11758033 -0.101668306
000070 bc 09 0b 3f 28 f6 2e 3e 3d 29 54 3d 0d 09 7c be
       0.5431173 0.17086089 0.05179714 -0.24612828
000080 b1 c9 40 3e 72 f9 3f 3e 6d 3d 19 3e 6f 25 25 bd
       0.18826939 0.187475 0.14964838 -0.040318903
000090 d5 ee 5d 3d fe 51 7c 3e b6 a5 8a 3c bf b2 0a 3e
       0.054182846 0.24640653 0.01692472 0.13544749
0000a0 e6 a1 87 3e 49 59 85 be ef 20 73 be 11 79 28 3e
       0.26490706 -0.26044682 -0.23743032 0.16452433
0000b0 9b 27 de 3e 9a 0a d6 bc 23 03 e2 3d e4 34 13 3f
       0.43389592 -0.026128102 0.110357545 0.5750258
0000c0 ad ea 4b 3f b5 20 a5 3e cb a1 8d 3d 1e 59 0b 3f
       0.7965496 0.32251516 0.06915625 0.5443286
0000d0 b2 60 2d 3d 0f a2 59 3f 66 37 76 bb a2 dd e5 3e
       0.042328544 0.85012907 -0.003756964 0.44895655
0000e0 83 29 71 3c 3c aa e9 3e 1a d7 bd 3d 2d d4 00 3e
       0.01471937 0.4563769 0.09269543 0.12580939
0000f0 f8 20 99 3e cf 4b ac be 71 e9 3e 3e e7 f4 59 3e
       0.29907966 -0.33651587 0.18643738 0.21284829
000100 04 db 03 3e ba a9 c9 3e dc c8 b7 bc 86 ca 74 be
       0.12876517 0.39387304 -0.022434644 -0.23905382
000110 52 e8 e8 3d 96 0b 43 bd 0d 4b a4 3d b6 12 84 3e
       0.113724366 -0.04761847 0.08022127 0.25795525
000120 b8 d3 a9 3c 37 b2 63 3e f3 19 69 be f2 59 8c 3d
       0.020730838 0.22235952 -0.22763805 0.06853093
000130 2c 88 f2 bd ad d2 0e 3f 25 9c 9c 3e a4 38 41 3e
       -0.11842379 0.55790216 0.3058788 0.18869263
000140 58 57 fb 3d 14 72 07 3f 73 88 6f 3e a1 4d c8 3c
       0.12272519 0.52908444 0.23391895 0.024451079
000150 b9 d5 1c 3f 09 f0 6e 3e 29 84 16 3e 14 98 92 bd
       0.61263615 0.23333754 0.14698853 -0.07157913
000160 ee 77 0a 3e 89 ee 9d 3e ed b1 9a bd 85 59 3d be
       0.13522312 0.3084605 -0.07553468 -0.1849118
000170 69 71 16 3e b6 a5 40 3e 65 48 0b 3f e0 16 63 be
       0.146917 0.18813214 0.5440734 -0.22176695
000180 c1 e0 88 bd aa 7c 53 bd a5 02 45 3e c0 47 d7 3c
       -0.066834934 -0.05163256 0.1923929 0.02627933
000190 3e 6f a6 3e b6 4b dc 3e 3c 52 3e 3d 5c 63 91 3e
       0.32506746 0.43026513 0.046465144 0.28396118
0001a0 5e 8d 32 3f 34 15 9b 3e 4b 78 a4 bd 44 de 81 3d
       0.6974696 0.30289614 -0.080307566 0.06341222
0001b0 84 1d 44 bc 12 41 d4 3d fc d4 34 3d 78 0c 8d be
       -0.011969928 0.10363974 0.04414843 -0.27548575
0001c0 11 ee 16 bc e6 49 c6 3d 14 db 2b 3f e2 92 ef 3e
       -0.009212033 0.09682064 0.6713116 0.4679175
0001d0 4f fc b5 3e 11 50 17 3e aa fe 27 3d f3 74 b8 3e
       0.3554406 0.14776637 0.04101435 0.36026725
0001e0 a6 39 52 3d 3a 59 1c 3e aa 9d 42 be f9 05 96 3d
       0.05132451 0.15268412 -0.19005457 0.07325358
0001f0 61 38 e1 bd 39 12 92 be 86 ef c0 3d 2b 13 87 bd
       -0.109970815 -0.28529528 0.094206855 -0.06595453
000200 5d 08 34 be 26 e1 40 bd f4 1d 2c be a5 33 7d 3e
       -0.17581315 -0.04708972 -0.16808301 0.24726732
000210 da a0 46 be 5e de 93 3d 8e be 3b 3e 0d 5d 4f 3e
       -0.19397298 0.072201476 0.1833441 0.2025034
000220 e4 c7 6b be 32 0b 46 be 45 96 88 3e 4c 69 46 3d
       -0.23025471 -0.19340208 0.26677147 0.048440263
000230 3d a9 a0 3c 24 f9 b4 3d 77 16 6a 3e a5 d5 fc 3c
       0.01961195 0.08836582 0.22860132 0.030863592
000240 44 99 74 be 00 81 2d be 33 2a 8c 3d 29 0d 1f be
       -0.23886591 -0.16943741 0.06843986 -0.15532364
000250 22 f2 0f 3d be 54 20 3e df a5 38 be ae 1f c1 3d
       0.035143025 0.15657327 -0.18032025 0.094298705
000260 aa 4a 08 bb dd cc 8c 3d b3 4b 8a bd 2f c8 28 3e
       -0.0020796456 0.06875012 -0.0675272 0.16482614
000270 83 d8 38 bc 15 c7 6a 3d 47 4f 86 bd 19 9d 6d bc
       -0.011282089 0.057318766 -0.0655809 -0.014502787
000280 8c 4f 55 3d aa a2 a9 bc a7 e2 76 3d c1 79 29 3c
       0.052077815 -0.020707447 0.060274746 0.01034397
000290 8c 9f e4 3d 9a a5 97 3d d1 09 66 be c9 7e 78 be
       0.11163244 0.07404633 -0.22464682 -0.24267115
0002a0 7f ad 52 bd 12 79 fc 3d 0c 88 7e bd ad 0c 19 3e
       -0.05143499 0.1232778 -0.062141463 0.14946242
0002b0 ba 99 a4 3e f5 50 a3 3e d8 50 53 3c 5a 94 00 3e
       0.32148534 0.31897703 0.012897693 0.12556592
0002c0 b8 35 92 bc a8 3a 57 be 50 61 3d be 37 33 05 be
       -0.01784788 -0.2101847 -0.18494153 -0.13007818
0002d0 a0 27 28 be 7b a8 d4 3c c7 c6 fa 3d 60 1d 24 3c
       -0.16421366 0.025959244 0.12244945 0.010016769
0002e0 99 9c 2c 3d fd fd be bc b7 76 80 be bb 56 0d be
       0.04214153 -0.02331447 -0.25090572 -0.13802616
0002f0 3f 83 17 3e f6 50 36 bd 44 f4 c7 3e cd ff 2e be
       0.1479616 -0.044510804 0.39053547 -0.17089768
000300 f4 9e e0 bd c0 09 21 3e b1 ac d6 3d c6 ae 53 3d
       -0.10967818 0.15726376 0.10482157 0.05168035
000310 d3 d1 59 be 27 d3 63 3e cc 0b cf 3d b1 7c 78 3d
       -0.21271448 0.22248517 0.10109672 0.06066579
000320 9f 73 88 be 0a 54 ff bd 54 15 8e 3e a3 57 35 3e
       -0.26650712 -0.12467201 0.27750647 0.17709212
000330 16 bf 02 3e d3 41 b4 3d 49 43 00 bd 18 b2 36 3e
       0.12768206 0.088016175 -0.031314168 0.17841375
000340 48 46 dc bd 9a 68 8b 3c a6 93 c7 3d bc 0d c9 bd
       -0.107555926 0.017017651 0.097449586 -0.09817073
000350 dc c8 30 be 96 a1 32 be 12 be 25 3d a9 59 0e bd
       -0.17264122 -0.17444453 0.04046447 -0.034753475
000360 f0 a5 8e 3e 18 01 ea 3d 34 7a e6 bc 83 c8 1b 3d
       0.27860975 0.1142599 -0.028134443 0.03803302
000370 4a f4 dd 3d 5b fa 29 3e b8 e0 58 3e 13 cf 71 3e
       0.1083761 0.1659941 0.21179473 0.23614149
000380 c5 ab 89 bd 28 67 2c 3e 4e 60 d4 3d a1 81 95 3d
       -0.067222156 0.16836226 0.10369931 0.073001154
000390 ed 19 60 3e 24 86 59 3d c0 f4 87 3e 16 34 46 bd
       0.2188489 0.053106442 0.26553917 -0.048389517
0003a0 64 e0 6a bc d4 6f 30 3e e9 6b ba 3d 25 e4 18 3c
       -0.014335725 0.17230159 0.091026135 0.009331738
0003b0 30 ae bd 3b 2e 5d df ba 8c 92 d7 3d 8d 52 b6 3d
       0.005788587 -0.001704132 0.105259985 0.08902464
0003c0 bb 20 13 be 2c da bb 3b ba d2 58 be 13 3b 96 3b
       -0.14367954 0.005732795 -0.21174136 0.004584679
0003d0 80 79 25 3e 6b 0f 67 3c 5d 33 6c bd 5c 0f b9 3d
       0.1615963 0.014102797 -0.05766617 0.09036133
0003e0 de 0b 89 bc 5c 19 d8 3c cc ea 79 bd 22 85 87 3d
       -0.016729292 0.02637928 -0.061014935 0.0661719
0003f0 95 50 2b be 3d 23 2c be bd b9 6e be a6 5b e8 bc
       -0.16729958 -0.16810317 -0.23313041 -0.028364014

l2.bias f4 [128]
000000 2c 24 8e 3d 4f d9 c4 bd a6 63 e8 bd 9f 06 f8 3c
       0.06940493 -0.09611761 -0.113471314 0.030276595
000010 5f 8f ab 3e 34 74 09 be 3e c4 8c bd b0 36 f1 bd
       0.3350782 -0.13423234 -0.06873368 -0.11778009
000020 00 c2 98 bc cc 18 64 bb 49 2b ba bd d7 5d d3 bd
       -0.018647194 -0.003480482 -0.09090287 -0.10320633
000030 9a 6a 70 3e 5d 4c 8f bd b5 84 f9 bd 88 29 1f 3d
       0.23478165 -0.06996987 -0.12183515 0.038857967
000040 03 00 a3 3c b3 b2 8d 3d f7 c2 7a bd 38 47 93 bd
       0.019897467 0.0691885 -0.06122109 -0.07191318
000050 c4 59 da 3c 31 ac 02 bd 51 e2 8c bc 56 02 c2 bd
       0.026654132 -0.031902496 -0.01719776 -0.09473102
000060 c5 16 f5 bd dd 02 81 3b ca b9 18 3d 0c 7e e6 bb
       -0.119672336 0.003937109 0.037286557 -0.007034069
000070 73 eb aa bd 67 4d 6a bd ba db 42 bd 88 ee b6 3d
       -0.083456896 -0.057202723 -0.04757283 0.08932215
000080 ea 73 c6 bd 5d 6f 0f be 30 c9 42 3b d5 33 ce 3d
       -0.096900776 -0.14007325 0.0029721968 0.1006848
000090 16 b3 c1 bd df 7e 65 bd 0d 9b 2d 3e f5 4c 05 be
       -0.09457986 -0.056029197 0.16953678 -0.13017638
0000a0 cb 94 61 bc 0c 43 d9 bd 3c 95 6c 3c 09 8a dc bd
       -0.013768385 -0.10608491 0.014439877 -0.107685156
0000b0 ed a0 65 bd 66 dd 69 bd b1 e2 b7 bc 0b 59 d6 bc
       -0.056061674 -0.057095908 -0.022446962 -0.026165506
0000c0 6d 32 ac bd 8f 59 2d 3e 58 95 d9 bc 16 4f 60 bd
       -0.084080555 0.16928695 -0.02656047 -0.054762922
0000d0 ba 0a cb bc 03 26 58 ba 08 e0 8c 3d 5b 78 11 be
       -0.024785388 -0.000824541 0.06878668 -0.14206068
0000e0 07 33 8d 3b 71 c5 32 bc ff 95 d9 bc 6c c1 b9 bd
       0.0043090614 -0.0109113315 -0.026560782 -0.090700954
0000f0 0b d6 fb bd 8b 09 d4 3b 45 ef 23 be 0f 18 e1 bd
       -0.12296685 0.006470864 -0.16009243 -0.10990917
000100 4d d9 15 3f 5b b4 70 3e 95 ab 2d be b0 74 92 bc
       0.585347 0.235063 -0.16959985 -0.017877907
000110 a6 78 a4 3d 22 a7 e1 bd d1 dc 02 be b1 a8 16 3d
       0.08030824 -0.11018206 -0.12779547 0.03678197
000120 94 61 28 be 41 ab b7 3c 0a 2e d3 3d 8e 53 e8 bd
       -0.16443473 0.022420527 0.10311516 -0.11344062
000130 67 5b f0 bd 92 30 bb bd a8 16 22 3c e4 91 50 bd
       -0.117361836 -0.091401234 0.009893097 -0.050920382
000140 f0 bf 12 3d 00 4d d6 bd dd a1 57 3d 44 e4 3b bd
       0.035827577 -0.10463905 0.0526446 -0.045871988
000150 a6 df 14 3d cf 23 a1 3b 50 5d 08 be 19 ba 85 bd
       0.0363461 0.004917599 -0.13316846 -0.06529636
000160 ea 55 04 bd 83 ff 4e be 9a 0a b3 bd df 4a 31 bd
       -0.032308497 -0.20214657 -0.087422565 -0.043284293
000170 a5 f0 16 be 20 7d 31 bd da da 06 be 1a 34 0b bc
       -0.14740236 -0.04333222 -0.13169423 -0.008496309
000180 96 76 a7 bd 61 49 24 be 34 75 f6 bb 4a a6 68 bd
       -0.08176915 -0.16043617 -0.007521296 -0.05679921
000190 8e d5 8d bc 28 bb 32 be 1d 90 d6 bd b5 c4 05 bd
       -0.017313745 -0.17454207 -0.10476706 -0.032658298
0001a0 d7 6e 95 bd a8 4f 38 bd 6b e4 f0 3c d1 d3 0f be
       -0.07296532 -0.04499784 0.029405793 -0.14045645
0001b0 1c 95 ee bb ae f9 ac bd 6f 7f 97 3c fd 9c 63 3d
       -0.007280959 -0.0844606 0.018493382 0.055569638
0001c0 0d f1 f6 bd 36 1b a9 bd ab 22 80 3c cb c0 13 be
       -0.120576955 -0.08257143 0.015641531 -0.14429013
0001d0 8c 22 61 3c 2d 4c c1 bd 0e 24 1e be af 2d a9 bd
       0.013741147 -0.094383575 -0.15443441 -0.082606666
0001e0 04 5a b8 bc 90 04 cc bd db ac 21 3e 13 5e 6c bc
       -0.02250386 -0.09961808 0.15788595 -0.014426726
0001f0 a3 44 71 3a 9f 85 05 bd c9 9d ba bd 81 fc 1a 3a
       0.0009203648 -0.032598134 -0.091121264 0.000591226

l3.weight f4 [32, 128]
000000 67 dc 39 c0 2c c5 8f bd 19 2d cf 3d 4c af a2 be
       -2.9040773 -0.070200294 0.101160236 -0.31774366
000010 bf 87 02 bf 86 43 89 be 0f fe a2 bd 2b 9b e9 be
       -0.5098838 -0.2680933 -0.07958614 -0.45626196
000020 c6 57 22 3e 00 d1 90 3a 6e 9b c6 be f9 83 a9 be
       0.15853795 0.0011048615 -0.38790458 -0.331085
000030 c2 ab 7f bf 14 5a 33 bf fd 4b a7 3c 8c d2 e9 3d
       -0.99871457 -0.70059323 0.020421976 0.11417112
000040 af 2e 11 bf ed af 43 3e 5d 16 a5 bf a9 5e 7f be
       -0.5671186 0.19110079 -1.289745 -0.24938454
000050 b8 7e 02 bf 5a ca ff bd 89 f2 50 be f9 c6 f7 be
       -0.5097461 -0.124897674 -0.2040502 -0.48393992
000060 63 e5 c4 be 69 58 32 3e f0 09 e2 3c 71 a9 cf 3d
       -0.38456258 0.17416538 0.02759263 0.1013974
000070 c5 6d f8 3d 31 63 eb be fe 6c fe bd 26 e7 35 be
       0.12130312 -0.45974115 -0.12423132 -0.17763957
000080 9f 06 15 bd 74 09 1e bf e0 32 56 be 44 89 18 be
       -0.036383267 -0.61733174 -0.20917845 -0.14896113
000090 2d fc a1 bd 02 85 9d be 60 8f 5b bd d4 9f 71 be
       -0.07909427 -0.3076554 -0.05360353 -0.23596126
0000a0 14 20 26 3d 24 98 d2 3c 69 68 4a 3e be 08 f2 be
       0.040557936 0.025707312 0.19766392 -0.47272295
0000b0 62 c1 9d be 51 4b 08 bf ec 5b 91 be 53 db 08 be
       -0.30811602 -0.53239924 -0.28390443 -0.13364916
0000c0 93 3d 74 3d e9 d7 47 bf 81 01 be be 68 61 1e c0
       0.059629034 -0.7806383 -0.37110522 -2.4746952
0000d0 fc 74 6d bd 9f 27 5c bf ac b2 25 be 7b 29 81 be
       -0.057972893 -0.85997957 -0.16181439 -0.2522696
0000e0 5e 38 14 c0 d1 51 7f 3d a4 0e 24 be 79 24 ad 3c
       -2.3159404 0.062333886 -0.1602121 0.021135556
0000f0 53 07 b0 bc e2 2d 07 bf 86 e9 88 bc e5 52 3a be
       -0.021487867 -0.52804387 -0.016712915 -0.18195684
000100 ac 47 9c c0 2c 7d 65 bf b4 04 16 3e 4b c4 74 bd
       -4.883749 -0.8964412 0.14650232 -0.059757512
000110 bd 5a 30 be 0b 62 24 be 44 61 4d bd 20 ac d9 be
       -0.17222114 -0.16053025 -0.050141588 -0.42514133
000120 9d 9c 96 be f7 5a 92 bd 83 0e 55 3d b6 78 07 bf
       -0.2941636 -0.071462564 0.052015793 -0.52918565
000130 14 0b 90 be d0 bd 96 3b e6 b7 b2 bf e5 2c 38 bf
       -0.28133452 0.004600264 -1.3962371 -0.71943504
000140 92 c4 d5 3d eb 0d d0 bd 18 c9 69 3d 67 bc 47 3b
       0.104378834 -0.10158905 0.057076544 0.0030477287
000150 cb 35 8b be 1b e4 bf be e6 1e e4 3d 05 2a 2d 3d
       -0.27189478 -0.37478718 0.11138706 0.0422764
000160 c5 69 d0 be 53 33 c2 3e dc 57 58 3a e1 a7 59 be
       -0.40705696 0.37929782 0.0008252838 -0.21255447
000170 0c ea 0f bf 25 1f 26 be cc 1b 05 c0 97 0e 2e bd
       -0.562165 -0.16222818 -2.0798216 -0.042494383
000180 2b 9e 5a bf 22 d1 00 bf 55 21 a9 3b 96 8a 5a bd
       -0.85397595 -0.5031911 0.005161444 -0.053354822
000190 a3 d3 40 be fa a7 f1 bd b5 5f 93 bd 18 e2 fb be
       -0.18830733 -0.11799617 -0.07195989 -0.49195933
0001a0 7c 28 1f bd e3 ff 9b bd 63 01 1c 3e fa 6b 13 bf
       -0.03885697 -0.07617166 0.15234904 -0.57586634
0001b0 8c 5e ba be 68 32 14 be e4 61 5c bd e4 cd 2c bf
       -0.3640026 -0.14472353 -0.053804293 -0.67501664
0001c0 f5 4e 16 bf 47 6e b9 be fb 11 20 bf b8 1a d1 be
       -0.5871423 -0.36216947 -0.62527436 -0.40840697
0001d0 43 ad 52 be 71 a2 a3 be 03 83 12 bf f6 af 36 bf
       -0.20573907 -0.3195987 -0.5723116 -0.71362245
0001e0 8d e2 b3 3d 9d 3b c3 3d bd 60 f4 be 87 57 2d bf
       0.087834455 0.09532855 -0.47730055 -0.6771168
0001f0 ab 69 ee 3c da 5b 02 bf e7 62 90 be 05 cd 4c be
       0.02910312 -0.50921404 -0.28200457 -0.20000084
000200 f7 2b fc bf 91 aa 02 3e 4e 7e ad bd b9 4e 61 be
       -1.9700917 0.12760378 -0.08471356 -0.22002687
000210 52 da c3 be 49 20 ab bd df 78 ae be 33 11 f9 be
       -0.38252503 -0.08355767 -0.34076592 -0.48645934
000220 a7 6e c2 3d ce c6 93 bd 40 5a 01 bf 2e 21 7f 3a
       0.094937615 -0.07215653 -0.50528336 0.0009732422
000230 05 47 b2 bf 58 a7 b6 be 74 bd ab bd 25 0f 03 3e
       -1.3927923 -0.35674548 -0.08385745 0.12798746
000240 f1 e0 71 bf 83 30 03 3d c2 0e 10 c0 b9 92 79 be
       -0.9448386 0.032028686 -2.2509007 -0.24372377
000250 00 46 48 bf d4 c1 03 3c 3d 4a e7 be 0c b3 4a bf
       -0.7823181 0.008041818 -0.45173827 -0.79179454
000260 37 13 51 be 06 aa 21 3e 38 99 6e 3e bf fd 1f 3d
       -0.20417486 0.15787515 0.23300636 0.03906035
000270 ad f5 57 be 15 f9 b3 be a5 e5 36 3d df 39 36 bd
       -0.21089812 -0.35150972 0.0446526 -0.044488784
000280 8a 0a ca bd 7f 78 1a bf 40 60 0e 3e c1 75 e5 be
       -0.098652914 -0.6034011 0.13903904 -0.44816402
000290 69 84 0c bd 02 8e b2 be 7e fb e0 be 1d 74 40 3e
       -0.034305964 -0.34873968 -0.43941873 0.18794294
0002a0 e3 67 fe bd c9 f4 b5 be 96 9f 72 be 22 a8 af be
       -0.124221586 -0.3553832 -0.2369369 -0.34307963
0002b0 6f f7 bb be ce 93 ce bc f3 a0 21 be 52 97 7b be
       -0.36712214 -0.025216963 -0.15784054 -0.24569443
0002c0 3b fa e6 be 69 e5 05 bf 28 02 25 3d 19 a1 10 c0
       -0.45112786 -0.5230318 0.04028526 -2.2598326
0002d0 10 9e f2 be 47 7d 0a bf c3 02 c7 be 59 4a e4 3c
       -0.47386217 -0.5409741 -0.38869295 0.027867483
0002e0 b7 9d e9 bf 56 c8 09 bf eb 82 ef be af 61 33 39
       -1.8251256 -0.53821313 -0.4677957 0.0001710716
0002f0 2b 4a 2c 3d be 50 28 bf 67 36 9d 3d bc f9 8b bf
       0.04206292 -0.657482 0.07676392 -1.0935588
000300 1c eb 3f c0 ca 46 e7 be 04 7a 2c bd 51 b0 11 3e
       -2.998725 -0.45171195 -0.04210855 0.14227416
000310 6b a2 aa be 53 4b 28 3d 37 9c b7 be 73 03 de bf
       -0.3332704 0.04108746 -0.3586137 -1.7344803
000320 a4 ff 98 be 88 c8 b2 be 41 a0 4c 3c 49 21 de bf
       -0.29882538 -0.34918618 0.012489379 -1.7353908
000330 36 25 da be f1 30 0c bf e8 a6 bf bf fa a8 59 be
       -0.42606515 -0.5476218 -1.4972811 -0.21255866
000340 76 eb ba bc 1c a7 c2 bc 71 5f 14 3e 2d cb ea 3c
       -0.022817355 -0.023761325 0.14489533 0.028661335
000350 84 f6 66 3d 11 a5 8d be 6e ad 10 bf 57 0d dc be
       0.05638744 -0.27664998 -0.5651463 -0.42978927
000360 8d f8 02 bf ef fc 11 bf 9c 11 a2 bd 50 87 14 be
       -0.5116051 -0.5702657 -0.07913515 -0.14504743
000370 9a 76 7d bf c6 ca cf bd 96 55 53 3f 19 54 47 bf
       -0.99009097 -0.10146098 0.8255247 -0.778627
000380 49 56 d7 be 04 e1 c6 be ab c4 9f bb dc d9 be 3b
       -0.42058018 -0.38843548 -0.0048757396 0.0058243107
000390 c2 c5 3b bf 8e c9 6c be e8 1a 06 be 4c e2 c5 be
       -0.7334863 -0.23123762 -0.13096201 -0.38649213
0003a0 10 59 43 bb 09 18 24 be fc cd 9a 3d 7f 0c 0c c0
       -0.0029807724 -0.16024794 0.0755882 -2.1882627
0003b0 cb 8b e8 be 5f 5a 05 bf d6 de b4 bd 4f 58 c0 bd
       -0.45419154 -0.5209102 -0.08831565 -0.093918435
0003c0 84 f6 fa be 6f f9 91 be f6 bb 2a be 91 01 d5 be
       -0.49016201 -0.28510615 -0.16673264 -0.41602758
0003d0 8f 64 86 bd 3c 25 5e be ea 00 ef be d7 54 ad bd
       -0.06562149 -0.21693891 -0.46680385 -0.084634475
0003e0 14 bd a5 bb a6 44 46 be 7e 2a 5e bf ac 72 f6 be
       -0.0050579403 -0.19362125 -0.8678359 -0.48134363
0003f0 75 11 0f bc a7 7d 82 bf 61 8a 68 bd d8 e5 a2 bd
       -0.008732189 -1.0194596 -0.056772593 -0.079539955

l3.bias f4 [32]
000000 15 f5 10 c0 76 55 b3 bf 84 e5 79 3d 10 26 6f be
       -2.2649586 -1.4010456 0.0610099 -0.23354363
000010 67 2b 7b c0 d4 7f f0 be 69 64 97 be a7 70 06 c0
       -3.924524 -0.46972525 -0.29568794 -2.1006258
000020 50 d2 02 bf 4c be c1 bf aa 24 41 bf 7f 77 56 bf
       -0.5110216 -1.5136199 -0.7544657 -0.83776087
000030 9e 36 82 bf a8 fa ed be 15 cd e2 be 2a b7 10 3d
       -1.0172918 -0.46480298 -0.4429709 0.03533093
000040 c8 cc 69 bf 4a a4 32 c0 8f 51 4f be 77 76 82 bf
       -0.91328096 -2.7912774 -0.20245956 -1.0192403
000050 06 5f 36 bc bf 26 5d be bd ed 3a bf 6b ae c3 bd
       -0.011131054 -0.21596812 -0.7301901 -0.09554752
000060 df 72 23 be 15 ee 1c c0 10 cc 49 c0 9d b6 41 c0
       -0.15961789 -2.4520314 -3.15308 -3.0267708
000070 3f d5 5c 3d ed e2 fa bf 6c 91 f0 bf 48 89 c8 bf
       0.053914305 -1.9600502 -1.8794379 -1.5666895
