data.pth (torch, 164522 bytes, 6 tensors)

l1.weight f4 [128, 153]
0	0x3dd5bbfc	0.10436246
1	0xbcd7a7a9	-0.026325064
2	0x3dd9e017	0.10638445
3	0xbcb0b5b3	-0.021571016
4	0xbe99be92	-0.30028206
5	0xbd80733f	-0.062719814
6	0x3d901b86	0.070365
7	0x3e5551db	0.20832007
8	0x3e04dada	0.1297411
9	0x3e5691a0	0.20953989
10	0x3e364ba8	0.17802298
11	0x3e14c60a	0.14528671
12	0xbe71e279	-0.23621549
13	0x3d703be6	0.058650874
14	0x3d3b3011	0.045700137
15	0x3dda193b	0.106493436
16	0xbe393c9d	-0.18089528
17	0xbe16ed06	-0.14738855
18	0x3da48911	0.08033956
19	0x3dc598b3	0.09648266
20	0x3e6589bd	0.22415824
21	0xbdac3fd6	-0.08410613
22	0x3e3ba676	0.18325219
23	0x3dd7f31b	0.105444156
24	0x3dd66080	0.10467625
25	0x3da19ba5	0.07891015
26	0xbc2d03b3	-0.010559964
27	0xbe2ce0ab	-0.16882579
28	0x3d9b7711	0.075910695
29	0x3e1f4851	0.1555493
30	0x3ce82daa	0.028342087
31	0x3e3f89e5	0.18704946
32	0x3e186112	0.1488078
33	0x3eb80214	0.35939085
34	0xbddce81c	-0.10786459
35	0x3d349303	0.044085514
36	0x3da5cedd	0.08096097
37	0xbad525ca	-0.0016261872
38	0x3e20afb3	0.15692024
39	0x3e8dfe2b	0.27732977
40	0x3df772e3	0.1208246
41	0xbd9a5adc	-0.07536861
42	0x3da16f37	0.07882541
43	0xbd5c53d0	-0.053790867
44	0x3e002cc3	0.12517075
45	0x3e388ae6	0.18021736
46	0xbe8687dc	-0.26275527
47	0x3de49fd8	0.111633
48	0xbe1ab306	-0.15107355
49	0x3e1f29fe	0.15543362
50	0x3db98d71	0.09060181
51	0x3df8f87e	0.12156771
52	0xbe58202e	-0.21106026
53	0x3e009c0d	0.12559529
54	0x3e9ca16b	0.30591902
55	0x3e9767bb	0.29571328
56	0x3e68b810	0.22726464
57	0x3dfc6ad3	0.123250626
58	0xbda3d7bd	-0.08000133
59	0x3e39aa43	0.18131356
60	0x3dc0a83a	0.09407087
61	0x3cb16cb6	0.021658283
62	0x3e1dd3b7	0.15412794
63	0x3d05179e	0.032493226
64	0x3da16bd4	0.07881895
65	0x3e03bfdf	0.12866162
66	0xbe353e00	-0.17699432
67	0xbc1558b8	-0.0091153905
68	0x3e6a025b	0.22852461
69	0x3d3e1aa1	0.046412114
70	0x3e3eacaa	0.18620554
71	0xbeae63a6	-0.340604
72	0x3d8dd177	0.06924718
73	0x3dfa8dd3	0.12234082
74	0x3d541639	0.051779006
75	0xbd88872f	-0.06666409
76	0x3dbe85a2	0.09302832
77	0xbe00bacd	-0.12571259
78	0x3e2fb8f0	0.17160392
79	0x3e04c13c	0.12964338
80	0x3da0aa6d	0.07845006
81	0x3d4c5254	0.0498832
82	0x3d2c1380	0.042010784
83	0xbe5131f4	-0.20429212
84	0x3ddef4dd	0.10886548
85	0x3db21589	0.08695514
86	0x3e27067e	0.1631107
87	0x3e7191a6	0.23590717
88	0x3e89da02	0.2692414
89	0x3e71cdfb	0.23613732
90	0x3ccce71e	0.025012549
91	0x3d3d96a7	0.04628625
92	0x3dcbe895	0.09956471
93	0xbcc01110	-0.023445636
94	0x3e6913a1	0.22761394
95	0x3e44d7c1	0.19222929
96	0xbba73617	-0.0051028836
97	0x3e8f460b	0.27983126
98	0xbe7a2d02	-0.24431232
99	0x3e6480e3	0.22314791
100	0xbdac0ba7	-0.0840066
101	0x3d35d88e	0.044395976
102	0x3e7c6f22	0.24651769
103	0xbd629185	-0.05531456
104	0x3e3bbc54	0.1833356
105	0xbe13b3d0	-0.14424062
106	0x3e7ae92e	0.24503013
107	0x3d1f32c4	0.038866773
108	0x3e0db6a8	0.13839209
109	0x3d844847	0.06459098
110	0x3e9b48da	0.3032902
111	0xbd9e79e3	-0.07738092
112	0xbd0ec96e	-0.034860067
113	0xbc7ebec2	-0.01554841
114	0xbb718064	-0.0036850208
115	0xbccdf36b	-0.025140485
116	0x3e02b595	0.1276458
117	0x3deb1bff	0.11479949
118	0x3b85464c	0.004067218
119	0xb8c99671	-9.612449e-05
120	0x3e15231a	0.14564171
121	0xbc79430d	-0.01521374
122	0xbc710d70	-0.014712676
123	0x3d3588eb	0.04432003
124	0x3eeebf0a	0.46630126
125	0x3e09447f	0.13405035
126	0xbd7faca0	-0.062420487
127	0x3e3cc76b	0.18435447
128	0x3e94ad4c	0.29038465
129	0x3e048683	0.12941937
130	0xbb2090f2	-0.0024500457
131	0x3e83aafc	0.25716388
132	0x3e3a7527	0.18208753
133	0x3e3e1d9e	0.18565986
134	0x3de9be1d	0.11413214
135	0xbbc2a469	-0.0059400094
136	0xbaeb97f4	-0.0017974363
137	0x3da3c1e6	0.079959676
138	0x3e205c02	0.15660098
139	0x3dd44948	0.1036554
140	0x3d882127	0.06646948
141	0x3da8bcb2	0.08239116
142	0x3e3e74d7	0.18599258
143	0xbe16fe4e	-0.14745447
144	0xbdedaba8	-0.116050065
145	0xbd624e22	-0.055250295
146	0x3e7717f5	0.24130233
147	0x3d828c7a	0.0637445
148	0x3df00736	0.117201254
149	0x3c5a4c36	0.013323834
150	0xbc1d3c86	-0.009596949
151	0x3e803bea	0.2504571
152	0xbcc1b08b	-0.023643753
153	0x3e7607c7	0.24026404
154	0x3cd5cb06	0.026097786
155	0xbd019efa	-0.031645752
156	0xbdb6e765	-0.08930854
157	0xbdd7337e	-0.10507868
158	0xbd2f226f	-0.042757448
159	0xbdf9bc17	-0.121940784
160	0x3e630f84	0.22173887
161	0xbe09073f	-0.1338167
162	0xbd958ebb	-0.07302614
163	0x3c4803da	0.0122079495
164	0xbe542a2d	-0.20719214
165	0xbe35e7b1	-0.17764165
166	0x3d3708ec	0.044686243
167	0xbcf613ca	-0.030038733
168	0x3db55b20	0.08855271
169	0xbdb45924	-0.08806065
170	0x3e834b39	0.25643328
171	0x3e79a8b7	0.24380766
172	0x3dc438d9	0.09581155
173	0x3e6f7207	0.23383342
174	0x3cc54ea4	0.02408535
175	0x3e077191	0.13226916
176	0xbcd86a4e	-0.026417878
177	0x3e1685c8	0.14699471
178	0x3ed14527	0.40873072
179	0x3e4f1039	0.20221032
180	0x3e2c9f72	0.16857699
181	0x3ddc44d0	0.107553124
182	0x3e5404df	0.20704983
183	0x3db987f7	0.09059136
184	0x3e9e1547	0.30875608
185	0x3d227e63	0.039671313
186	0x3ddb3ade	0.107045874
187	0xbdaa6203	-0.083194755
188	0x3d0b38a1	0.033989552
189	0x3e8fe614	0.28105223
190	0x3d1951e1	0.0374316
191	0x3e88f080	0.26745987
192	0x3e8b67d8	0.27227664
193	0xbdeaea62	-0.11470486
194	0xbe434b37	-0.19071661
195	0x3ec26052	0.37964112
196	0x3e55eeec	0.20891923
197	0x3d88fe0b	0.0668908
198	0x3ea9c645	0.3315908
199	0xbc9f3614	-0.019434966
200	0x3da42f08	0.08016783
201	0xbe9660f7	-0.29370853
202	0x3e4025a5	0.1876436
203	0x3db989b5	0.09059469
204	0x3e9c997f	0.30585858
205	0x3ebd2e56	0.36949414
206	0xbcac9f62	-0.021072093
207	0x3ea26759	0.31719473
208	0x3e9a8357	0.3017833
209	0x3ea10feb	0.31457457
210	0x3e29779b	0.16549532
211	0xbcaefe8c	-0.021361612
212	0x3e2776bf	0.16353892
213	0x3e99dd6c	0.30051744
214	0x3dfb42c3	0.12268593
215	0xbd4ddf9d	-0.050262082
216	0x3c7c67c6	0.015405601
217	0xbd3f7c67	-0.0467495
218	0x3dc8c2d4	0.098027855
219	0x3d086a12	0.03330428
220	0x3e0012cd	0.12507172
221	0x3e6bf92a	0.23044267
222	0x3e14f65a	0.145471
223	0xbdaed1f7	-0.08536141
224	0xbe59c726	-0.21267375
225	0x3d46523b	0.048418265
226	0x3ca1f1ad	0.01976856
227	0x3e3b3f95	0.18285973
228	0xbd54659d	-0.05185472
229	0x3e147fdd	0.14501901
230	0x3c94e0b3	0.018173551
231	0xbd84fda2	-0.06493689
232	0xbe588fe2	-0.21148637
233	0x3e2069ad	0.15665312
234	0x3da37803	0.07981875
235	0x3e2179c2	0.15769103
236	0x3e99b3fe	0.30020136
237	0x3cf31c67	0.02967663
238	0xbd4c5beb	-0.049892347
239	0x3d3178ee	0.04332822
240	0x3e450235	0.19239123
241	0x3e27c5f4	0.16384107
242	0x3e84124a	0.25795203
243	0x3d8637ea	0.065536335
244	0xbd00b40a	-0.0314217
245	0x3e216794	0.15762168
246	0x3d85c851	0.06532348
247	0xbd9fa6a5	-0.07795457
248	0xbca288de	-0.019840654
249	0xbd87ff1e	-0.066404566
250	0xbe213463	-0.1574264
251	0xbdf32adb	-0.118734084
252	0x3dd24e36	0.10268824
253	0xbea22c7a	-0.31674558
254	0x3dfde084	0.123963386
255	0xbe193ec7	-0.14965354

l1.bias f4 [128]
0	0x3e8e2f9d	0.277707
1	0x3ea99c43	0.3312703
2	0x3e6ef328	0.23334944
3	0x3e87111b	0.26380238
4	0x3ec6f414	0.38858092
5	0x3e814872	0.25250584
6	0x3e67e39c	0.2264542
7	0x3e9589ed	0.29206792
8	0x3e8aa0e0	0.27075863
9	0x3eab4b49	0.33455876
10	0x3e5f9565	0.21834333
11	0x3e493c28	0.19651854
12	0x3e8763a6	0.26443213
13	0x3e9e8065	0.30957332
14	0x3e582f35	0.21111758
15	0x3e43dcba	0.19127169
16	0x3e49f95b	0.19724028
17	0x3ea41022	0.32043558
18	0x3e6c6f80	0.23089409
19	0x3e6426ff	0.22280501
20	0x3ea71e57	0.32640335
21	0x3e9cbf29	0.30614594
22	0x3e556e93	0.20842962
23	0x3e9c3a6b	0.3051332
24	0x3e8c68f2	0.27423817
25	0x3e0efe72	0.1396425
26	0x3e3015e4	0.1719585
27	0x3ea4dc56	0.32199353
28	0x3e664e34	0.2249077
29	0x3e90ad2c	0.2825712
30	0x3e9861ab	0.29762015
31	0x3e971a44	0.29512227
32	0x3e98a0af	0.29810092
33	0x3e0cc09a	0.13745347
34	0x3e7c462f	0.24636148
35	0x3e438d16	0.19096789
36	0x3e2b214e	0.16711923
37	0x3e43fd9e	0.19139716
38	0x3e4ffcac	0.2031123
39	0x3e831746	0.25603694
40	0x3e8a53b4	0.27016985
41	0x3e8a4c56	0.27011365
42	0x3e60a1f5	0.21936782
43	0x3e914209	0.28370693
44	0x3e9eab30	0.3098998
45	0x3e79e6a3	0.24404387
46	0x3e7e71cd	0.24848099
47	0x3e8e93b1	0.27847055
48	0x3e9205a2	0.28519922
49	0x3e5c2cee	0.21501514
50	0x3e5ed061	0.21759178
51	0x3e9179c1	0.28413203
52	0x3e7d18d3	0.24716501
53	0x3e95b9ae	0.29243225
54	0x3e3b2975	0.18277533
55	0x3e2efb5a	0.1708807
56	0x3ea9e3c9	0.331816
57	0x3e9ccb5a	0.30623895
58	0x3e295885	0.16537674
59	0x3e8a4e36	0.27012795
60	0x3e540e88	0.20708668
61	0x3ed8e016	0.42358464
62	0x3e1b56cc	0.15169829
63	0x3e381794	0.17977744
64	0x3e93f8a7	0.28900644
65	0x3e875778	0.2643392
66	0x3e5268ef	0.20547841
67	0x3e948ad5	0.2901217
68	0x3e7ff2d7	0.2499498
69	0x3e8dde7e	0.2770881
70	0x3e711335	0.23542483
71	0x3e9973ca	0.29971153
72	0x3e04b1aa	0.12958398
73	0x3e949723	0.29021558
74	0x3e41abee	0.18913242
75	0x3e7a27c8	0.24429238
76	0x3e797750	0.2436192
77	0x3e8956ea	0.26824123
78	0x3e7701d8	0.24121797
79	0x3ea37240	0.31923103
80	0x3ec3b7c5	0.38226143
81	0x3eca5d3a	0.3952425
82	0x3e69608a	0.22790733
83	0x3e7536d5	0.23946698
84	0x3e94e31b	0.29079518
85	0x3e58d314	0.2117427
86	0x3e934aa9	0.287679
87	0x3e70ee0e	0.2352831
88	0x3e4c6e02	0.1996384
89	0x3e9af84c	0.3026756
90	0x3e8735c0	0.26408195
91	0x3ea6a82f	0.3255019
92	0x3eabb4d4	0.33536398
93	0x3e483cba	0.19554415
94	0x3e76354e	0.24043772
95	0x3e149ad2	0.14512184
96	0x3e3807b0	0.17971683
97	0x3eafc2d9	0.34328344
98	0x3e36983d	0.17831512
99	0x3e593793	0.21212606
100	0x3e1829b7	0.14859663
101	0x3e9bda1d	0.30439845
102	0x3e410f00	0.18853378
103	0x3e66bf07	0.22533809
104	0x3e91558d	0.28385583
105	0x3e6f1587	0.23348056
106	0x3e8b1318	0.27163005
107	0x3eed5b1f	0.46358582
108	0x3e89d8c0	0.2692318
109	0x3e59b367	0.21259843
110	0x3e8e55d8	0.2779987
111	0x3e807329	0.2508786
112	0x3e6d1027	0.23150693
113	0x3e6ccc82	0.23124889
114	0x3ea9a84b	0.3313621
115	0x3e06dfad	0.13171263
116	0x3e8137e1	0.25237945
117	0x3e9e5e4d	0.3093132
118	0x3e743583	0.23848538
119	0x3e9cec6a	0.3064912
120	0x3e84762c	0.25871408
121	0x3e5458c4	0.20736986
122	0x3e7cb5bc	0.24678701
123	0x3eb0699d	0.34455577
124	0x3e6d100f	0.23150657
125	0x3eb66a4a	0.35627967
126	0x3ecc4a20	0.39900303
127	0x3e92602e	0.28589004

l2.weight f4 [128, 128]
0	0xbe0cf73d	-0.13766189
1	0x3debd7c7	0.11515766
2	0x3d84bbd2	0.064811364
3	0xbe423ba8	-0.1896807
4	0x3d48986c	0.048973486
5	0x3db9a100	0.090639114
6	0xbd75a1f0	-0.05996889
7	0xbd0f4c19	-0.03498468
8	0x3d88d040	0.066803455
9	0x3e15093c	0.14554304
10	0x3e531bd1	0.2061608
11	0x3d550336	0.052005015
12	0x3d43a3be	0.04776358
13	0xbe1895e5	-0.1490093
14	0xbdf40af4	-0.11916152
15	0x3e3230f5	0.17401488
16	0x3ea16350	0.31521082
17	0xbccd10ac	-0.025032364
18	0x3d6720ea	0.056427874
19	0xbd9eea00	-0.07759476
20	0x3e0bb0bc	0.13641638
21	0x3e4950b7	0.19659697
22	0xbe1c69ea	-0.15274778
23	0x3deb2158	0.11480969
24	0x3e233c50	0.15940976
25	0xbdd05875	-0.10173122
26	0xbdfe0808	-0.124038756
27	0x3e6bd18f	0.23029159
28	0xbd7e1f3f	-0.062041517
29	0x3e86c8f2	0.26325184
30	0x3deaae66	0.11459045
31	0x3e0389dd	0.1284556
32	0x3bcb50ca	0.006204699
33	0x3c3f6749	0.01168234
34	0x3df50126	0.1196311
35	0xbe67a3c9	-0.22621073
36	0xbd16e3d4	-0.036838368
37	0x3d8dae38	0.06917995
38	0x3b8170d2	0.003950217
39	0x3beb4fcf	0.007181145
40	0x3d8fc68f	0.07020294
41	0x3cc42277	0.023942215
42	0x3e0a5138	0.13507545
43	0xbdf8fa3c	-0.121571034
44	0x3cbe239a	0.023210336
45	0x3da7850b	0.08179673
46	0x3b86f208	0.004118208
47	0x3e3f46c9	0.18679346
48	0xbd5873f1	-0.052844945
49	0x3e6bdd1e	0.23033568
50	0xbe7de08c	-0.24792689
51	0xbe9bd37e	-0.30434793
52	0xbed02954	-0.4065653
53	0x3e426ae7	0.18986093
54	0x3d3f0eb2	0.046644874
55	0xbdb4ae83	-0.08822348
56	0x3e94b170	0.29041624
57	0xbcb9ec8a	-0.022695798
58	0x3d258794	0.0404125
59	0xbe027003	-0.12738042
60	0x3d7b8334	0.061404422
61	0xbe11e4e6	-0.14247474
62	0xbdc3253b	-0.095285855
63	0x3e6a9c8e	0.22911283
64	0xbe113d1b	-0.14183466
65	0xbdfbd558	-0.122965515
66	0xbd95f38e	-0.07321845
67	0x3db626b9	0.088941045
68	0x3d524990	0.051339686
69	0x3e5bcfe2	0.2146602
70	0xbd8705b6	-0.06592886
71	0x3d96c7f1	0.073623545
72	0xbe02efd0	-0.12786794
73	0xbe105907	-0.14096461
74	0xbe83e8c5	-0.25763527
75	0x3e46aad6	0.19401106
76	0x3e48c400	0.19606018
77	0x3de31fdc	0.11090061
78	0x3cdac6d4	0.026706137
79	0xbde5fdec	-0.112300724
80	0xbd79ecc7	-0.061016824
81	0xbe0b98d2	-0.13632515
82	0x3e8d3b12	0.2758413
83	0x3e2f27e4	0.17105061
84	0x3e49437d	0.19654651
85	0x3e4615a2	0.1934419
86	0x3e077ae8	0.13230479
87	0x3d6e3246	0.058153413
88	0x3d2e1ed7	0.04250988
89	0xbe0aae3e	-0.1354303
90	0x3e2f81bf	0.17139338
91	0x3e235b55	0.15952809
92	0x3dbaeb39	0.091268964
93	0xbde66a5a	-0.11250754
94	0x3e98463a	0.2974108
95	0x3dc44d09	0.09585006
96	0x3e5d10e4	0.21588475
97	0x3e42cd0f	0.19023536
98	0x3e930419	0.28714064
99	0xbe90bfa0	-0.28271198
100	0xbe0b29b9	-0.13590135
101	0x3e331a3d	0.17490478
102	0x3e0670f7	0.1312903
103	0x3d997f8e	0.07495032
104	0x3de26467	0.110543065
105	0xbdaaf648	-0.08347756
106	0xbbcca8cc	-0.006245708
107	0x3dfefcde	0.12450574
108	0x3dca6c4a	0.09883936
109	0xbddc08e8	-0.10743886
110	0x3d143f7f	0.036193367
111	0xbd6439bb	-0.05571912
112	0x3e44d984	0.192236
113	0xbce1c1d4	-0.027558245
114	0x3e0d3171	0.13788392
115	0xbd61e0d1	-0.055146042
116	0x3df5e484	0.120064765
117	0xbc94db2a	-0.018170912
118	0x3c2a062b	0.010377447
119	0x3e244c31	0.1604469
120	0x3d3c5f29	0.04598919
121	0x3e87e021	0.26538184
122	0x3d4ab27a	0.049486615
123	0xbd5592d0	-0.052141964
124	0x3e2b4393	0.16724996
125	0x3d2b33c3	0.04179741
126	0x3e0e92d6	0.13923201
127	0xbd9f89e6	-0.07789974
128	0x3e91d0a4	0.28479493
129	0x3cb09b6d	0.021558488
130	0xbcbb5b7b	-0.02287077
131	0x3e32ae98	0.17449415
132	0x3dadc688	0.084851325
133	0x3abd7b74	0.0014456348
134	0x3deef634	0.11668053
135	0x3e421bb1	0.18955876
136	0x3deb2894	0.11482349
137	0x3c8b648a	0.017015714
138	0xbd6cea09	-0.05784038
139	0x3e31289b	0.17300646
140	0x3e67de9e	0.22643515
141	0x3d90c5b6	0.0706896
142	0xbc825cf1	-0.015913459
143	0x3d693f04	0.056944862
144	0x3ac82adb	0.0015271561
145	0x3e276140	0.16345692
146	0x3e080524	0.13283211
147	0x3e827f06	0.25487536
148	0x3e9dee82	0.3084603
149	0xbe024593	-0.12721853
150	0x3e442ee1	0.19158508
151	0xbe7062b4	-0.23475152
152	0x3e24fd86	0.16112337
153	0x3e3c9216	0.18415102
154	0x3e28a814	0.16470367
155	0xbe2de240	-0.16980839
156	0x3e1d23fc	0.15345758
157	0xbd98fbb1	-0.07469881
158	0xbdb1688a	-0.08662517
159	0xbe8b0b84	-0.27157223
160	0x3da5c742	0.08094646
161	0xbc5e9450	-0.013585165
162	0x3e33133f	0.1748781
163	0x3e7c7bf7	0.24656664
164	0x3dca59f4	0.098804384
165	0x3e681be4	0.2266689
166	0x3e0af1f7	0.13568865
167	0xbe001fb1	-0.1251209
168	0x3da4ebab	0.080527626
169	0x3d42a882	0.047523983
170	0x3e0eaaae	0.13932297
171	0x3ea32548	0.3186438
172	0xbd0ce0f0	-0.034394205
173	0xbd236663	-0.039892565
174	0xbd844cff	-0.06459998
175	0x3e3954e4	0.1809879
176	0x3ec1e66b	0.37871107
177	0xbe2ac7e9	-0.16677822
178	0x3e7869dd	0.24259134
179	0x3e8d9fb6	0.27660912
180	0x3ef002f6	0.4687726
181	0x3e5076bf	0.20357798
182	0x3de6ce4a	0.11269815
183	0x3e3b5a14	0.18296081
184	0x3d1528cb	0.036415856
185	0x3e890ae6	0.26766127
186	0xbd09a5db	-0.033605438
187	0xbc91c47c	-0.017793886
188	0x3d949d41	0.07256556
189	0x3dc304b9	0.09522385
190	0x3ea82374	0.3283955
191	0xbe30ca88	-0.1726476
192	0x3e0dceea	0.13848463
193	0x3e9cfbd1	0.3066087
194	0x3e64649e	0.22304007
195	0x3e36e591	0.1786101
196	0x3e1b855c	0.15187591
197	0x3d6fce03	0.058546077
198	0x3e9c29a2	0.30500513
199	0x3e54daa1	0.20786525
200	0x3e464a73	0.19364338
201	0x3da76097	0.0817272
202	0xbd38ae96	-0.045088373
203	0xbe6ee174	-0.23328191
204	0xbe3b1d33	-0.18272857
205	0x3e2d8c00	0.16947937
206	0x3e2cb58a	0.16866127
207	0xbd9776af	-0.07395684
208	0x3e262922	0.16226628
209	0x3e922d9e	0.28550428
210	0xbe3dbcca	-0.18529049
211	0xbe5d0877	-0.2158526
212	0xbd509f2e	-0.050933056
213	0xbe1648f8	-0.14676273
214	0x3e98daed	0.29854527
215	0x3ea4d3df	0.32192895
216	0x3d00b326	0.03142085
217	0x3e844b6b	0.2583879
218	0xbe1d61d5	-0.15369351
219	0xbe0c02b6	-0.13672909
220	0xbe705204	-0.23468786
221	0x3dc59ee1	0.09649444
222	0xbe2b1b05	-0.16709526
223	0xbb9bc564	-0.0047537554
224	0x3e6ec92f	0.23318933
225	0xbd8d2836	-0.06892435
226	0xbdbdc811	-0.09266675
227	0x3dda8289	0.10669429
228	0x3e7856c6	0.24251851
229	0xbd36dcea	-0.044644274
230	0xbda7873b	-0.0818009
231	0x3e505726	0.20345744
232	0x3c9e9a79	0.019360768
233	0x3e5836b4	0.21114618
234	0x3e92fea3	0.28709897
235	0xbd4d8602	-0.050176628
236	0x3e16da91	0.14731814
237	0xbe58e8ca	-0.21182552
238	0x3e942740	0.28936195
239	0xbe494c86	-0.19658098
240	0x3d39aba4	0.045329705
241	0xbe554f99	-0.20831145
242	0x3e848d01	0.25888827
243	0x3e133379	0.14375104
244	0xbd29cf91	-0.041457716
245	0x3dcb1855	0.0991675
246	0xbe0e443a	-0.13893214
247	0x3b7507dc	0.0037388718
248	0xbc8bd1e7	-0.017067863
249	0xbe267cd5	-0.16258557
250	0xbbd4ec45	-0.006497892
251	0x3d31adcb	0.043378633
252	0xbd682b6c	-0.056682035
253	0x3d24d99a	0.040246584
254	0x3e1ede78	0.15514553
255	0xbb82b52c	-0.0039888825

l2.bias f4 [128]
0	0x3c9782de	0.01849502
1	0x3d3095c3	0.043111574
2	0x3da8a85e	0.082352385
3	0xbcfb191c	-0.030651622
4	0x3d513fc3	0.0510862
5	0x3d48393e	0.048882715
6	0x3e08487a	0.13308898
7	0xbcf34633	-0.02969656
8	0x3dc61d3d	0.096735455
9	0x3dbaf05e	0.09127878
10	0x3c880f0d	0.01660874
11	0x3e33c13c	0.17554182
12	0x3df9676b	0.121779285
13	0x3e156635	0.1458977
14	0xbc2e4955	-0.010637601
15	0x3d21dda7	0.039518025
16	0xbd840f1b	-0.06448194
17	0x3d77c642	0.060491808
18	0xbd17ebfe	-0.037090294
19	0x3dfc3a45	0.123158015
20	0x3e03a342	0.12855247
21	0x3c290185	0.010315304
22	0x3d17d3a7	0.03706708
23	0x3d84872e	0.06471096
24	0xbc4d476b	-0.012529234
25	0x3dcc7e83	0.09985068
26	0x3d401dcf	0.046903428
27	0x3d55db3a	0.052211024
28	0x3daf80a4	0.08569458
29	0x3dab34c2	0.08359672
30	0xbd761781	-0.06008101
31	0xbd9586d7	-0.07301109
32	0x3db2dff8	0.08734125
33	0x3d830c54	0.06398836
34	0x3e01f78d	0.1269209
35	0x3dd241dd	0.10266469
36	0xbcf1681a	-0.029468585
37	0x3daa28a2	0.08308531
38	0x3dfd4137	0.12365954
39	0xbd0f4c15	-0.034984667
40	0xbcc2a6f9	-0.02376126
41	0x3d9146b4	0.07093564
42	0x3c186a86	0.009302741
43	0x3e149749	0.14510836
44	0x3b16a33c	0.002298548
45	0xbcbe41f4	-0.023224808
46	0xbd703841	-0.058647398
47	0xbde4331c	-0.11142561
48	0x3dda38f1	0.10655392
49	0x3e223d96	0.15843806
50	0x3db68ad2	0.089131966
51	0x3df2d00a	0.118560866
52	0x3d994226	0.0748332
53	0x3d83e89a	0.064408496
54	0x3dba07d2	0.09083523
55	0x3e042b63	0.12907176
56	0xbc32bb82	-0.010908963
57	0x3cc08898	0.023502633
58	0xbd9ddddf	-0.07708334
59	0x3d8d5872	0.06901635
60	0x3db852cc	0.09000167
61	0x3e415bdc	0.18882698
62	0xbcf56f8e	-0.02996042
63	0xbca226cd	-0.019793892
64	0x3d2ec873	0.042671632
65	0x3dab610d	0.0836812
66	0x3cf52b38	0.029927835
67	0x3dbc7ead	0.09203849
68	0x3d7b8f07	0.0614157
69	0x3e14ff33	0.14550476
70	0xbd317f46	-0.043334268
71	0x3ce8ff23	0.028441971
72	0x3dd349d7	0.10316818
73	0x3ce57f48	0.028014794
74	0x3a820802	0.0009920599
75	0x3d5c2010	0.053741515
76	0x3f0bfb28	0.5468011
77	0xbcd5ca84	-0.026097544
78	0xbc3a638e	-0.011376275
79	0x3c4dc127	0.012558258
80	0xbc94bf41	-0.018157603
81	0x3e0fd780	0.1404705
82	0xbaa3d3ce	-0.0012499036
83	0x3de53948	0.11192566
84	0x3e03d2fe	0.12873456
85	0x3dadeb55	0.08492152
86	0x3d809b57	0.06279629
87	0x3d99990f	0.07499897
88	0xbda7e510	-0.08197987
89	0x3e141d8e	0.14464399
90	0x3da0a4bc	0.078439206
91	0x3e27fbb9	0.16404618
92	0xbdcaee86	-0.09908776
93	0x3cbbb143	0.022911673
94	0xbdcf2939	-0.101152845
95	0x3e021d16	0.12706408
96	0x3ded6320	0.11591172
97	0xbc5aed94	-0.013362307
98	0x3d3d2c91	0.04618508
99	0x3e294d8b	0.16533487
100	0xbd9ca2f5	-0.07648269
101	0xbd46998d	-0.04848628
102	0x3d8ba0bb	0.06817766
103	0x3df9bf88	0.12194735
104	0x3d80107f	0.062531464
105	0x3d08f6e1	0.033438567
106	0x3d11260a	0.035436668
107	0xbd8f570a	-0.06999023
108	0x3e113f8a	0.14184394
109	0x3dc3794c	0.0954462
110	0xbd23d4ce	-0.03999787
111	0x3dc71571	0.097208865
112	0xbc9be7c5	-0.019031415
113	0x3e140797	0.1445602
114	0xb9323c6c	-0.00016997912
115	0x3d43261e	0.047643773
116	0x3d8d402b	0.06897005
117	0xbc6a5530	-0.014302537
118	0xbdae316b	-0.085055195
119	0x3e019889	0.12655844
120	0xbc3069a0	-0.01076737
121	0x3def3f0b	0.11681946
122	0x3df167e0	0.11787391
123	0xbd8887e7	-0.06666546
124	0x3da0b28d	0.07846556
125	0x3d8a0a58	0.06740254
126	0xbc52e13f	-0.012871086
127	0xbd26e2a8	-0.0407435

l3.weight f4 [29, 128]
0	0x3dddddc8	0.10833317
1	0xbcb27dcd	-0.021788502
2	0xbec5ca51	-0.38630918
3	0xbe18ca7e	-0.14920995
4	0xbe563d9d	-0.20921941
5	0xbe09ad14	-0.1344493
6	0x3dd5232c	0.10407099
7	0xbd90935b	-0.07059356
8	0xbea02021	-0.31274512
9	0xbbda4ed1	-0.0066622277
10	0xbdb72ee7	-0.08944493
11	0xbee62154	-0.44947302
12	0x3e27074b	0.16311376
13	0x3d96b06c	0.073578686
14	0xbecbcf30	-0.3980651
15	0xbe39226d	-0.18079539
16	0x3df8cf76	0.12148945
17	0x3e0c464e	0.13698694
18	0xbe306a16	-0.17227969
19	0x3d8d3cc1	0.068963535
20	0xbe8f8a6b	-0.28035292
21	0xbf3e8bcf	-0.7443208
22	0xbd53c9c5	-0.051706094
23	0x3e03bb24	0.12864357
24	0x3d8614b6	0.06546919
25	0xbed07390	-0.40713167
26	0x3d3dd34a	0.04634408
27	0xbe0b7ee6	-0.13622627
28	0xbe9abb1e	-0.30220884
29	0xbe21e233	-0.15808944
30	0xbeabbb45	-0.33541313
31	0x3d945116	0.072420284
32	0x3e3812ab	0.17975871
33	0xbe4afd39	-0.1982316
34	0xbdbf2938	-0.09334034
35	0xbe68fa75	-0.22751792
36	0xbe51c025	-0.20483454
37	0xbdc4371d	-0.095808245
38	0x3d9e9813	0.077438496
39	0x3c3ee31d	0.011650828
40	0x3baa67bb	0.005200354
41	0x3e08495b	0.13309233
42	0xbd910e1f	-0.070827715
43	0x3e14d761	0.14535286
44	0xbcf34bfb	-0.029699316
45	0xbeda5f9e	-0.42651075
46	0xbd69d581	-0.05708838
47	0xbc96dd5b	-0.018416097
48	0x3d4e6b55	0.05039533
49	0xbf8817f2	-1.0632308
50	0x3e0860dc	0.13318199
51	0x3d92c824	0.0716708
52	0x3d9b2ec2	0.07577278
53	0xbe564f7c	-0.20928758
54	0xbc40b776	-0.0117624905
55	0x3d9bf457	0.076149635
56	0xbe90f552	-0.28312165
57	0x3e09a349	0.13441195
58	0xbe924578	-0.28568625
59	0x3dfff63c	0.12498137
60	0x3e21ceb3	0.15801506
61	0xbca90231	-0.020630928
62	0xbea73069	-0.32654122
63	0x3de6f93e	0.11278008
64	0xbb2b1d2f	-0.0026109924
65	0x3e0f7a1b	0.14011423
66	0xbe82afaa	-0.25524646
67	0xbdbfd6e4	-0.09367159
68	0x3ddfabb9	0.10921425
69	0xbda86b47	-0.082235865
70	0x3d770a46	0.060312532
71	0xbecbcd08	-0.39804864
72	0x3c92fac7	0.017941846
73	0xbf25c0ea	-0.6474749
74	0x3d8901d3	0.06689801
75	0xbe8bea6f	-0.27327296
76	0xbe8def6f	-0.27721736
77	0xbeae7562	-0.3407393
78	0xbe3682a0	-0.17823267
79	0x3e1ff2c0	0.15619946
80	0xbdccbc53	-0.099968575
81	0xbd56b597	-0.05241927
82	0x3dd62d17	0.10457819
83	0xbe48a338	-0.19593513
84	0xbe57432e	-0.21021721
85	0xbe95dd67	-0.2927048
86	0xbd0b0437	-0.033939566
87	0xbe176b1d	-0.14786954
88	0xbd88909d	-0.06668208
89	0xbd6d3ff3	-0.057922315
90	0xbd3717db	-0.044700485
91	0x3ca17490	0.019708902
92	0xbd9e9db5	-0.07744924
93	0xbe90ef4d	-0.28307572
94	0x3ddb2cc7	0.107019
95	0xbeeca7d0	-0.4622178
96	0xbe882b29	-0.2659543
97	0x3d9a3ea4	0.07531479
98	0xbe7e9c49	-0.24864306
99	0xbe7eb06d	-0.24871989
100	0xbd958d78	-0.07302374
101	0x3c97bea9	0.018523531
102	0x3d1b730f	0.037951525
103	0x3d8f0a6f	0.06984412
104	0xbebbc5f2	-0.36674458
105	0x3e7270a7	0.23675786
106	0xbe94eb45	-0.29085746
107	0xbd2ed294	-0.04268129
108	0xbd86f59c	-0.06589815
109	0xbed3473e	-0.4126529
110	0xbedcb27d	-0.43104926
111	0xbecbe73e	-0.3982486
112	0xbec9c174	-0.39405406
113	0xbe07be15	-0.13256104
114	0xbf06a631	-0.5259734
115	0x3db628cf	0.08894502
116	0xbeb0ace1	-0.34506896
117	0xbe23d827	-0.16000424
118	0xbe20beca	-0.1569778
119	0xbec11018	-0.3770759
120	0xbd7ceccc	-0.061749265
121	0xbea09e91	-0.31370977
122	0xbf0e1a56	-0.55508935
123	0x3cfe20b5	0.031021455
124	0xbb2520af	-0.0025196483
125	0xbda7dd04	-0.08196452
126	0xbe482ac7	-0.19547568
127	0xbe87ff88	-0.26562142
128	0x3e4ca030	0.19982982
129	0xbf083943	-0.53212374
130	0x3d53a04c	0.051666543
131	0x3e09cb1d	0.13456388
132	0xbed526d8	-0.41631198
133	0x3d1e2166	0.03860607
134	0xbdd567a3	-0.10420158
135	0xbe53d8b1	-0.2068813
136	0x3e2494d9	0.16072406
137	0xbe0376af	-0.12838243
138	0xbdb53634	-0.08848229
139	0xbe81cfd4	-0.25353873
140	0xbefcc43d	-0.49368468
141	0xbe228d9b	-0.1587433
142	0xbc65394e	-0.013990713
143	0xbde28623	-0.11060741
144	0xbcc42912	-0.023945365
145	0x3d5d2053	0.053985905
146	0xbe60ce19	-0.2195362
147	0xbe212709	-0.15737547
148	0xbe2a02a0	-0.16602564
149	0xbf56a7ce	-0.838498
150	0xbd410e59	-0.047132824
151	0x3d60e224	0.054903165
152	0xbc523054	-0.012828905
153	0xbe80ba7e	-0.25142282
154	0xbe669a2e	-0.22519752
155	0xbdd73245	-0.10507635
156	0x3ceaec2c	0.028677069
157	0xbdd8ba79	-0.10582442
158	0xbe5792e5	-0.2105213
159	0xbd7a3475	-0.061085183
160	0x3dd8cd08	0.105859816
161	0xbd9e9977	-0.07744115
162	0x3e4c7d9f	0.19969796
163	0x3e33a69d	0.17544027
164	0xbe0014a5	-0.12507875
165	0xbcaacd3b	-0.020849815
166	0xbe6ff904	-0.23434836
167	0xbbc5191f	-0.0060149576
168	0x3cd9f377	0.02660535
169	0xbdbb6db3	-0.09151783
170	0xbd07560a	-0.033041038
171	0xbd4d674c	-0.05014734
172	0x3e0e2fc4	0.13885409
173	0xbb69da08	-0.0035682935
174	0xbe80fd3b	-0.251932
175	0xbe920bce	-0.2852463
176	0x3df294b0	0.11844766
177	0xbfa883ae	-1.3165185
178	0xbd9413be	-0.07230328
179	0xbe8aebd6	-0.27133054
180	0xbec87c43	-0.39157304
181	0xbe9c0f55	-0.30480447
182	0xbe33f69a	-0.1757454
183	0xbe2d8be6	-0.16947898
184	0x3cfeaafa	0.031087387
185	0xbd49f524	-0.04930605
186	0x3ce03031	0.02736673
187	0x3e00e8d0	0.12588811
188	0xbe32fe6a	-0.17479864
189	0xbe14a4fa	-0.14516059
190	0xbd86e787	-0.06587129
191	0xbec30228	-0.38087583
192	0xbead3dad	-0.33836117
193	0x3d4acb9c	0.049510583
194	0xbee03a40	-0.4379444
195	0x3e2800be	0.16406533
196	0x3e246d4b	0.16057317
197	0xbdaf592a	-0.085619286
198	0x3d9479f3	0.072498225
199	0x3d999a19	0.07500095
200	0x3e2f6e79	0.17131986
201	0x39af50de	0.00033438852
202	0x3e2c1bc5	0.16807468
203	0xbe8f4f51	-0.279902
204	0xbf29b05a	-0.66284716
205	0xbe9a16a4	-0.30095398
206	0x3e3c9cfe	0.18419263
207	0xbe904ce9	-0.28183678
208	0xbdd26e9d	-0.10275004
209	0x3e2f7921	0.17136051
210	0xbe264d06	-0.1624032
211	0x3e3b45e9	0.18288387
212	0x3e2ef3f6	0.17085251
213	0xbd9e6672	-0.07734384
214	0xbd36f3a8	-0.044665962
215	0xbb8ed236	-0.004358555
216	0xbd68c382	-0.056827076
217	0xbe6d232d	-0.2315795
218	0xbefe5dc9	-0.49680927
219	0xbe46fa47	-0.1943141
220	0x3c4837be	0.012220321
221	0x3ce1c27c	0.027558558
222	0xbed7a188	-0.42115426
223	0x3ce65490	0.028116494
224	0xbe67cb17	-0.22636066
225	0x3d3be7ae	0.045875244
226	0x3db77ab9	0.08958954
227	0x3d357037	0.04429647
228	0xbe3a148f	-0.18171905
229	0xbd512274	-0.051058248
230	0x3bab2433	0.005222821
231	0xbcb31be7	-0.02186389
232	0x3df9499e	0.121722445
233	0x3c85374e	0.016261723
234	0x3b988a1c	0.004655136
235	0xbae0de6e	-0.0017156133
236	0x3e344893	0.1760581
237	0xbecd94c7	-0.4015257
238	0xbe2d50fd	-0.16925426
239	0xbea69a84	-0.3253976
240	0xbe42313e	-0.18964097
241	0x3d7a465c	0.061102256
242	0xbe813488	-0.2523539
243	0x3d99aa2e	0.07503162
244	0xbe30688c	-0.17227381
245	0x3b99340b	0.0046753935
246	0xbdb70a8e	-0.0893756
247	0xbd91b059	-0.07113714
248	0x3bfe83b8	0.007767167
249	0x3c416fd1	0.011806444
250	0xbd545941	-0.05184293
251	0xbe6d2d86	-0.23161897
252	0x3befb453	0.0073151975
253	0xbee8dab8	-0.4547937
254	0xbf0f288c	-0.55921245
255	0xbee9562c	-0.45573556

l3.bias f4 [29]
0	0xbc01670c	-0.007898103
1	0x3d974e3e	0.073879704
2	0xbcd62fb6	-0.026145797
3	0xbdd19f28	-0.10235435
4	0x3d4ff93d	0.0507748
5	0xbde5cf59	-0.11221189
6	0xbc8eeeb0	-0.0174478
7	0xbca2edda	-0.019888807
8	0x3cb9081b	0.022586873
9	0xbc75718e	-0.014980687
10	0x3cae8105	0.021301756
11	0x3d831364	0.06400183
12	0x3d6eb35d	0.058276523
13	0xbdb5be92	-0.08874239
14	0x3da796eb	0.08183082
15	0xbd937582	-0.07200147
16	0x3d43f147	0.047837522
17	0xbd75a1a2	-0.0599686
18	0x3d870b90	0.06594002
19	0x3ded437a	0.11585136
20	0xbd5b8a68	-0.05359879
21	0xbca318b7	-0.019909246
22	0xbb9ce54f	-0.004788078
23	0x3c5650b6	0.013080766
24	0xbd31587d	-0.04329728
25	0x3d635cfa	0.05550859
26	0x3c84b77c	0.016200773
27	0x3d24b07d	0.040207375
28	0x3d238001	0.039916996
