data.pth (torch, 209322 bytes, 6 tensors)

l1.weight f4 [128, 239]
000000 cf 0a 89 3f 17 7b 40 3e 25 b0 6a 3e cc 9a c7 3e
       1.0706424 0.18796955 0.22918756 0.38985288
000010 03 da 6c 3d e1 f5 c5 3f 7a c3 79 3f b9 3b e9 3e
       0.0578251 1.5465661 0.975639 0.45553377
000020 6e db b7 3e 57 f7 ca 3f 57 b0 8a 3e 23 4f ef 3d
       0.359096 1.5856732 0.27087662 0.11685016
000030 d6 dd 35 3f f7 37 54 3e 22 53 b5 3e 44 1e b5 3e
       0.7104162 0.20724474 0.35414988 0.35374653
000040 01 66 4e 3f 6e 29 69 3f 13 83 bb 3e 54 73 ab 3e
       0.80624396 0.9107884 0.3662344 0.33486426
000050 2a 0e 49 3f e1 21 53 3e 41 45 02 be 48 e6 b5 3d
       0.7853724 0.20618393 -0.12721731 0.08881813
000060 31 ce 90 3e 73 78 7c 3e 1d 0a 1c be b6 7d 61 3f
       0.28282312 0.24655323 -0.15238233 0.88082445
000070 6e 11 ef bd ef ad cc 3e dd 46 0f 3f 4f 6c 1c 3f
       -0.11673246 0.3997645 0.55967504 0.61102766
000080 af 4f 44 3f 9d fd 37 bd c8 79 03 3e 34 85 35 3e
       0.7668409 -0.0449196 0.12839425 0.17726594
000090 99 ab 02 3e 20 ba 03 be 70 4f b3 3e 83 9e df bd
       0.12760772 -0.1286397 0.35021544 -0.109189056
0000a0 2f 64 1b 3f 6d 33 8c bd 0d a0 9e 3d 93 6a ea 3e
       0.60699743 -0.06845746 0.07745371 0.45784435
0000b0 61 fa e4 3e 9b f1 b8 bd c8 60 94 3e d9 61 fb 3d
       0.44722274 -0.090304576 0.28980088 0.12274522
0000c0 0a e6 4e 3e 16 67 32 3e 91 a3 e7 3d 3a 14 c7 3d
       0.2020494 0.17422137 0.11310495 0.09720655
0000d0 e2 f6 a3 3d c8 0b 28 3d 92 e7 e8 3e ea f3 31 3f
       0.080060735 0.04102686 0.45489174 0.6951281
0000e0 07 fd 8f 3f aa 3d 11 3f df 32 cb 3e c2 65 11 3f
       1.1249093 0.56734717 0.3968725 0.56795895
0000f0 41 91 51 3e e6 b0 99 3d f6 c5 50 bb d4 fa 99 3e
       0.20465566 0.07504444 -0.0031856275 0.3007418
000100 bb 53 32 be a8 54 06 3e 13 d3 66 3f 03 ce 2e 3e
       -0.17414753 0.13118231 0.90165824 0.17070775
000110 92 9b 49 bd 3f 85 27 3e 3b 98 c7 3d fb 96 d9 3d
       -0.04922063 0.16359423 0.097458325 0.106245
000120 8e 05 a9 bd a1 84 46 3f d5 05 90 3d 47 5e 96 3d
       -0.082530126 0.77546126 0.07032362 0.07342201
000130 a1 e7 1c bd 34 32 02 3f da 80 6a bc 5d 2d d4 3e
       -0.038306836 0.50857854 -0.014312947 0.4144086
000140 5f 27 0d 3e 81 a5 64 3e ac 1a 84 3e 02 8f 47 3d
       0.1378455 0.2232876 0.258016 0.048720367
000150 db 80 32 3e f5 f7 ae 3e 88 ea 29 3f 65 06 ef bd
       0.17431967 0.3417355 0.6637349 -0.116711415
000160 63 3b eb bc c3 f5 31 3f 22 2e 2f 3d 08 c9 c0 3d
       -0.028714841 0.6951563 0.042768605 0.09413344
000170 7b e3 2b 3f 7c a4 c4 3f 7a c0 c0 3f a2 8e 36 3f
       0.6714398 1.5362697 1.5058739 0.7131139
000180 9a 36 42 3e 9e 47 80 3e 83 85 2e 3e b7 03 04 3f
       0.18966141 0.2505464 0.17043118 0.5156817
000190 c4 e0 af bd 2b 47 18 3f b7 f2 3a be 74 0a c3 3c
       -0.085877925 0.59483594 -0.18256651 0.023808695
0001a0 b8 3f 18 3f 7b 38 32 3e 1c f9 bc 3e ba 94 c0 3c
       0.5947223 0.17404358 0.36908805 0.023508418
0001b0 0d f6 b2 3c 03 5d a8 3f d3 10 0b be 08 32 7c 3e
       0.021845842 1.3153385 -0.13580637 0.2462846
0001c0 ff df fa 3e e3 d7 97 3d 22 e3 c0 3e d3 2a 80 3e
       0.4899902 0.07414224 0.3767329 0.25032672
0001d0 93 5d 28 3e 76 f7 2a 40 94 1c ed bc 34 74 42 be
       0.16441946 2.6713538 -0.028944291 -0.1898964
0001e0 73 c4 4b 3e 8f 0f 78 3e 8b 02 ab 3e 9b a6 76 3e
       0.19899158 0.24224685 0.33400378 0.24086992
0001f0 39 cc b8 3e da 21 a3 3e eb df a2 3e 6a 89 dc bc
       0.3609331 0.31861764 0.3181146 -0.026920993
000200 80 9b 7a 3e 85 65 1e 3f 2e 49 37 bd 6f 8e 02 3e
       0.24473381 0.61873657 -0.044747524 0.12749647
000210 d2 f1 96 3e 1b be 9d 3e 7d 40 87 3d e4 76 31 3e
       0.2948137 0.308091 0.06604097 0.1733051
000220 50 32 ed 3e df d1 53 3d 7b ee 63 3e 65 e0 0c 3f
       0.46327448 0.05171382 0.22258942 0.550299
000230 43 04 a1 bd 6d 40 ad 3c 8d 8c c1 3e 60 7f 12 3e
       -0.07862141 0.021148885 0.37802544 0.14306402
000240 43 0f 19 3f 50 e7 0b 3e 54 08 91 3e 95 6f 0b 3e
       0.5978891 0.13662457 0.28326666 0.13616784
000250 a3 d0 f8 bd ee c3 0e be 69 63 86 3e 75 58 8c 3e
       -0.12149169 -0.13941929 0.2624772 0.27411237
000260 58 12 99 3e 0a 6e 58 3e 46 aa 85 3e e9 6c c9 3e
       0.29896808 0.21135727 0.2610647 0.39340904
000270 7b 3e d8 3e 8d 3f f1 3e bc 8c d9 3e a4 87 53 be
       0.4223517 0.47118798 0.42490184 -0.20657212
000280 0f 1b 00 3e 37 ef 45 be 71 34 e7 3d f1 42 19 3f
       0.12510322 -0.19329534 0.11289299 0.5986777
000290 22 e0 14 3f 76 b3 0a 3f 79 1c e4 3e 6d 21 5d 3e
       0.581545 0.54180086 0.44552973 0.21594782
0002a0 cb 8c a7 3d 83 79 9a bd 2c 49 89 3e e7 64 48 3e
       0.08181151 -0.07542708 0.26813638 0.19569741
0002b0 4e 1d f2 3e f1 02 8d 3e 83 1e ae 3e fa d0 ca bd
       0.47287983 0.27541307 0.34007654 -0.0990314
0002c0 b6 4d da 3d 30 2e ee 3e a5 11 15 bd 09 53 7b be
       0.106593534 0.46519613 -0.03639378 -0.24543394
0002d0 34 8b bc 3d ca 0e d5 3e 11 c5 26 3e 88 e1 4c 3f
       0.092062384 0.41612846 0.16286112 0.80031633
0002e0 a3 0e 67 3d 1e 62 bc 3e 0b 44 fc bd b2 c0 06 3f
       0.056410443 0.36793607 -0.12317666 0.5263778
0002f0 c6 1d e5 3d a1 5d 56 3e 9b f1 b3 3e 25 4a 15 3f
       0.111873195 0.20934154 0.35145268 0.5831626
000300 2b e2 17 3f 65 37 b7 bd 98 cf 73 be 55 59 94 3e
       0.5932948 -0.089461125 -0.2380966 0.28974405
000310 2e b2 f6 3d c4 9f 88 3f 1a 91 7f 3f 55 4a bf 3e
       0.12045704 1.0673757 0.9983078 0.37361398
000320 66 e8 f1 3c ed 3f b3 3f 01 8c 26 3e c0 21 a0 3f
       0.029529762 1.4003884 0.16264345 1.25103
000330 b6 bd ae 3e 5c 12 96 be 88 fc ca 3e f9 fa ad 3f
       0.34129113 -0.29310882 0.3964579 1.3592216
000340 c4 fa de 3d f3 b9 7f 3e 85 c3 02 3f f7 e6 4e 3e
       0.108876735 0.24973278 0.5107959 0.20205294
000350 ba e4 73 bd ee 32 85 3e 0b 0b 94 3e 16 29 43 3e
       -0.059544303 0.2601542 0.28914675 0.19058642
000360 e4 b9 36 3d 35 77 cb 3d 83 11 e6 3e 6c ba 71 3d
       0.044610873 0.09934846 0.44935235 0.059015676
000370 b5 f5 3d 3e be ff 1c 3f a6 9c a9 3e bd 54 b4 3e
       0.18550761 0.6132773 0.33127326 0.352209
000380 de 56 bb 3d 84 03 3a bd 62 91 a1 3e 1f 39 86 3d
       0.09147428 -0.04541351 0.3155623 0.06553864
000390 d0 4e b4 3e 95 8c 92 3e 45 a7 93 bd b3 a2 65 3e
       0.3521638 0.2862288 -0.072096385 0.22425346
0003a0 f9 0c 17 3f 9e d8 e0 3e 00 9b 89 3e 65 ac cf bd
       0.5900417 0.43915266 0.26876068 -0.101403035
0003b0 fd 92 fd bc c1 29 95 3f 7d 7f 93 3e ad 92 90 be
       -0.030953879 1.1653367 0.28808203 -0.28236905
0003c0 98 46 d7 bd cc fd 62 3d c6 dd 19 3d 87 4f 4c 3e
       -0.105115116 0.05541782 0.037565015 0.19952212
0003d0 c1 8a 8a be 73 eb 5b 3e be 23 9d 3e 15 05 1d 3e
       -0.27058986 0.21476535 0.30691332 0.1533397
0003e0 f8 86 a4 be 60 47 05 3f 85 6c 08 bd fd 08 86 be
       -0.32134223 0.52062035 -0.033306617 -0.26178733
0003f0 4a 04 8d bc cc 6f 8d bd 0d 1d bb 3d 0e 27 a8 3e
       -0.01721396 -0.06906089 0.091364 0.32842296

l1.bias f4 [128]
000000 00 ee 1a 3e be 6c 87 3d e0 7b b7 3d cf e3 c2 3d
       0.15129852 0.06612538 0.08959174 0.09516107
000010 0f cb dc 3d 30 e6 7a 3e c8 fe 4a bd 32 6d de 3d
       0.10780918 0.24501872 -0.049559385 0.10860671
000020 b3 32 5c bc 4e 8f 8b 3d 06 10 75 3d ba f8 8b 3d
       -0.013439822 0.068144426 0.059829734 0.0683455
000030 74 cc 13 3e 2e ac c8 3d 03 37 76 3d 30 29 40 3d
       0.14433461 0.09798466 0.060111057 0.04691428
000040 f1 c0 13 3d ae b6 80 3d fa c6 9c 3d 12 85 27 3d
       0.036072675 0.062848434 0.07655139 0.04089839
000050 ab b0 35 39 c1 3c 0c 3e 3e fd a8 3d 58 a2 ab 3d
       0.00017327319 0.13695051 0.08251427 0.08380574
000060 4a 90 aa 3c d3 f1 24 3d bd c7 3c bc d0 b5 42 bc
       0.020820756 0.040269684 -0.011522231 -0.011884168
000070 e2 df 7e 3e 94 ea b2 3a 7e 3d 29 3d b1 3d c1 3c
       0.24890092 0.0013650232 0.04131841 0.023588987
000080 1d e3 f4 bc be fc 4c 3c 97 08 6e 3d 1d 61 71 3d
       -0.029893452 0.01251143 0.05811366 0.058930505
000090 98 b1 05 3e a1 22 85 bd 1d eb 1d 3e 72 45 b7 bc
       0.13056028 -0.065007456 0.1542172 -0.022371981
0000a0 0c c8 c6 3d 46 c6 38 3e 34 45 d0 bd 4e 55 da 3c
       0.09706125 0.18044385 -0.101694494 0.026652005
0000b0 55 d7 f2 3c 0e 33 91 3d 87 9d 19 3e 62 ba c6 3d
       0.029643694 0.07089816 0.15001498 0.097035185
0000c0 f0 10 e7 3c 59 44 27 3d 68 ae 42 3c 37 51 43 3d
       0.028206319 0.040836666 0.011882402 0.047684874
0000d0 f7 f8 b1 3d 28 64 ba 3d 05 bf 94 3d 69 19 3b bc
       0.086900644 0.091011345 0.072629966 -0.0114196325
0000e0 07 a4 2b 3e 73 9d a6 3d 28 11 00 3e 73 0d 1f 3e
       0.1676179 0.081355 0.12506545 0.15532474
0000f0 b1 b3 48 3e 22 f8 02 3e ff ed 2c bd 32 7f 86 3e
       0.19599797 0.12789968 -0.04221916 0.26268917
000100 7a 09 1e 3e 6f 55 0c 3d 8a ad 90 3a c5 39 cf 3d
       0.15433303 0.034261163 0.0011038047 0.101184405
000110 55 3c 13 3e 24 91 bb 3d 1e 14 56 3c 55 34 0b 3d
       0.14378484 0.09158543 0.01306632 0.033985455
000120 7f 77 8b 3d 06 18 fc bb 19 62 96 3b 9e 73 5c 3d
       0.068099014 -0.0076932935 0.004589331 0.0538212
000130 43 26 8f 3d d3 2a 81 3d 69 d1 38 3e b3 81 1c 3c
       0.0698972 0.06306996 0.18048634 0.009552407
000140 48 e0 c1 3d f0 0f b4 3d 2d d9 a7 3d c4 b4 bd 3d
       0.094666064 0.08792102 0.0819572 0.09262994
000150 74 8f 19 3e e1 35 81 3c c8 d6 1f 3e 69 54 87 3d
       0.1499613 0.015772762 0.15609276 0.06607897
000160 74 e4 d5 3d a9 01 64 3d 06 9f a8 3c be 51 94 bc
       0.104439646 0.055665646 0.02058364 -0.018105384
000170 21 60 35 3d 7d 23 39 3d e7 e1 b3 3d 91 f4 b0 3d
       0.04428113 0.04519986 0.08783322 0.08640397
000180 3d b4 18 3e 2b e1 08 3d ac 93 7c 3c 70 4d 42 3d
       0.14912505 0.033417862 0.015416067 0.04743713
000190 4a cd 00 3e f1 c7 12 3d 24 71 c1 3c ff bb 9a 3d
       0.12578312 0.03583521 0.02361352 0.07555389
0001a0 1e 9b a2 3d d3 78 b9 3c ec 30 22 3e 01 64 2b 3e
       0.079397425 0.022640621 0.15838975 0.16737367
0001b0 b5 e6 07 bb 0a 6a 8d 3a 8c 12 00 3e 46 2c b0 3d
       -0.0020736877 0.0010789048 0.12507075 0.086021945
0001c0 0a a9 c3 bc 9a 8f 1e 3e 37 89 30 3e 32 26 d0 3d
       -0.023884315 0.15484467 0.17239843 0.10163535
0001d0 2d f9 14 3e 34 06 f2 3d 84 35 4e 3d 0d 29 7c 3c
       0.14548178 0.118175894 0.050344005 0.015390647
0001e0 b5 24 23 3e 61 1c 84 bc 84 e8 ea 3c 29 7d 2d 3e
       0.15931971 -0.016126813 0.028675325 0.16942276
0001f0 5e ea 91 3d 0f 13 0b 3e 81 17 b3 3d 09 88 c9 3c
       0.0712478 0.13581489 0.087447174 0.024601

l2.weight f4 [128, 128]
000000 27 e6 50 3d 93 27 06 bd 66 99 81 3d 6e 4b 9b bd
       0.05100074 -0.032752585 0.063280866 -0.075827464
000010 be 9d 43 3d 8e 4e bc bd 9e 15 e8 3c f6 8f c6 bd
       0.047757857 -0.091946706 0.02833062 -0.09695427
000020 cf 40 ed bc f4 15 8f bc ba ae fc bc 64 11 4c bd
       -0.028961567 -0.017466523 -0.030845035 -0.049821272
000030 78 fd 69 bd 20 47 06 3d 70 8b 95 bd 08 76 33 bd
       -0.057126492 0.032782674 -0.07301986 -0.043813735
000040 28 a5 2d bd d4 b4 c9 bd dc 4e 22 bd 4d d3 c0 bc
       -0.042393833 -0.09848943 -0.039625987 -0.023538256
000050 66 f9 a1 bd d9 ad 90 bd fb 99 7e 3d f2 5b 54 3d
       -0.07908897 -0.07064409 0.062158566 0.0518455
000060 da fd 03 3d b5 77 42 3c 5f ca 5c bd 76 69 6e bd
       0.032224514 0.011869361 -0.053903934 -0.058206044
000070 80 09 2a 3d 8f 2d 97 bc 03 2e 1b 3d 0e f2 87 bc
       0.041512966 -0.018454341 0.037885677 -0.016594913
000080 2d 18 d4 bd d4 64 ad bd 60 5e 67 bd 2a fc 18 3d
       -0.10356174 -0.08466497 -0.056486487 0.037349857
000090 60 11 8a 3c d4 c2 ab bb d5 93 72 bd 2a 72 88 3d
       0.016853988 -0.005241731 -0.059223015 0.066624
0000a0 0e d2 83 bd 29 8e 36 bd d4 b8 11 3c 0c ba 6b bd
       -0.06436549 -0.04456917 0.008894164 -0.057550475
0000b0 01 ee 57 bd fb 1e 37 bc 8f 15 72 3d 72 d4 a4 3d
       -0.052717213 -0.01117682 0.05910259 0.08048333
0000c0 4d 67 c0 bd 3e 33 28 bd 79 be a9 bd 76 9b a4 bd
       -0.09394703 -0.041064493 -0.08288283 -0.08037464
0000d0 8f 10 11 3c b5 b1 44 3d 6e c8 05 bd 34 55 b6 bd
       0.0088540455 0.048021037 -0.032661848 -0.0890297
0000e0 a7 69 13 3d 2e c4 6d bd d0 b8 17 3d 53 49 de bb
       0.03598943 -0.05804842 0.037041485 -0.0067836433
0000f0 aa 47 ed bc de 1c 22 3c 7a e5 56 bc ea 6c 21 3d
       -0.028964836 0.009894578 -0.013116235 0.03941051
000100 fa b2 b6 3c 67 2b a6 3c 1e 0b c3 bc d6 ed 2d 3d
       0.02230214 0.020284368 -0.023809012 0.042463146
000110 85 56 9f 3b 5d ee 65 bd 24 90 5f 3d f6 46 a8 bb
       0.004862609 -0.056135524 0.054580823 -0.0051354123
000120 7c 4e 48 3d 0e 04 35 3d ae 6a 25 3d cc b5 81 3c
       0.048902974 0.04419332 0.04038494 0.015833758
000130 8a eb 21 3c e9 15 8b 3d 36 96 98 3d d6 e8 49 3d
       0.009882817 0.067912884 0.074505255 0.049294315
000140 e8 0f 49 bd da 73 56 3d 13 60 80 39 0e 98 82 3c
       -0.049087435 0.05235658 0.00024485643 0.015941646
000150 95 f8 31 bd 12 9f d5 bd f3 18 07 3d ba 93 1e 3d
       -0.043449957 -0.10430731 0.032982778 0.0387151
000160 10 69 41 bc 6d 52 83 3d 2c d4 b5 bc b0 6d 6f 3c
       -0.011804834 0.06412206 -0.022195898 0.014613554
000170 9b 45 bd bb 40 f5 9a 3b f9 dc 55 bd ee 96 d7 bc
       -0.00577612 0.004728943 -0.05221269 -0.026317086
000180 27 e3 b5 3c b7 0c da 3c 71 a2 f3 3c ec 52 97 3d
       0.022203041 0.026617391 0.029740544 0.07388863
000190 d2 85 11 3b 36 d2 75 bd 73 b8 0a bd b8 62 85 3d
       0.0022205007 -0.060014926 -0.03386731 0.0651297
0001a0 60 3c 87 3d 17 47 84 3c 43 78 0a bc 7d 1f 85 3d
       0.066033125 0.01614718 -0.008451524 0.065001465
0001b0 74 5b 48 bc b2 54 41 3d 18 e2 36 bd 73 08 a9 3a
       -0.012228835 0.047199912 -0.044649214 0.0012896195
0001c0 61 84 b0 bd 9d 3c 9a bd f7 f7 90 bd 05 76 6d bd
       -0.08618999 -0.07531092 -0.070785455 -0.05797388
0001d0 dc 75 6f bd 70 d9 e3 bc de 9e b3 bd d4 fd 9f bd
       -0.05846201 -0.027813643 -0.08770536 -0.07812086
0001e0 03 81 be 3c 9f 24 6a bc 13 1e ba bd 9e 96 a6 bd
       0.023254877 -0.014290958 -0.090877675 -0.08134197
0001f0 41 b8 59 bd b2 62 e4 3b 04 64 cc bd 60 c5 ba bb
       -0.053154234 0.006969773 -0.09980014 -0.0056997985
000200 1a 8a 19 3e f9 e1 42 3d c1 15 c3 3d ac 88 c4 3e
       0.14994088 0.047578786 0.095256336 0.38385522
000210 78 31 d3 be fd 0a 7d 3e 98 af 6c 3d 33 2a f0 3d
       -0.4124868 0.24711223 0.057784647 0.11726799
000220 be c7 2a 3d 88 2d f1 ba bc 6c b9 be c6 86 2a 3e
       0.041694395 -0.001840041 -0.3621577 0.16652974
000230 cd f4 e6 3d 83 37 f7 3d c6 0b f8 3d 31 2b 95 3e
       0.11277161 0.12071135 0.121116206 0.29134515
000240 45 2d 1c 3e 78 eb 4b 3e a9 32 75 be 5a 6e 1d 3e
       0.15251644 0.19914043 -0.23945107 0.15374127
000250 f0 60 30 bd 8d 99 3e 3e 0a 20 75 3e 03 b9 23 be
       -0.043061197 0.18613262 0.23938003 -0.15988545
000260 31 2a bb bd 76 43 3c 3e a3 ab 2f 3e d9 58 99 3d
       -0.09138907 0.1838511 0.17155318 0.074876495
000270 a8 92 6b 3e 55 e7 dc bd 8d ad b2 3d 2b 22 28 be
       0.23005164 -0.107863106 0.087245084 -0.16419284
000280 1f 92 4a be 4b 25 11 3e 56 8e 8c 3e 7c d1 e2 3d
       -0.19782303 0.14174382 0.27452344 0.11075112
000290 92 a3 04 3e 7b ea 2a 3c 01 c7 42 be 1b 7a b3 3e
       0.12953022 0.010431881 -0.19021226 0.35054097
0002a0 f5 a1 bc bc 17 23 15 be 62 5e 66 3e 5d a4 e3 3d
       -0.023026446 -0.14564167 0.22496942 0.11115334
0002b0 4d 64 8e bd 56 3e cb 3e fa 4c 44 3e 1b 2e 07 bd
       -0.069527246 0.39695996 0.19169989 -0.033002954
0002c0 86 b6 bb 3c 68 6f 8b 3d 57 1c 62 bd f8 21 ca bd
       0.022914182 0.068083584 -0.05520281 -0.0986976
0002d0 b2 7e 6d 3e 63 93 2c 3e ce e1 76 be 29 fb 1c bc
       0.23192862 0.16853099 -0.24109575 -0.009581366
0002e0 80 d9 a3 bd f6 e9 a9 bd b7 b5 e6 3c f3 12 e2 3d
       -0.08000469 -0.08296578 0.02816282 0.110387705
0002f0 90 ea 17 3d 97 fd 96 3c 75 c9 20 3b c5 23 43 3d
       0.03708893 0.018431468 0.002453414 0.047641534
000300 05 b8 f7 3c 2c 1f bc 3c 1c a1 0b bd 0b e9 ab bc
       0.030239115 0.022964083 -0.034089193 -0.020985147
000310 76 5c 06 be 34 0b 6b bd a9 ca 99 3c 3a a3 82 be
       -0.13121209 -0.05738373 0.018773394 -0.25515157
000320 a2 1d 47 3e dd f9 07 3e 41 ee 38 be f9 1f 63 bd
       0.19444898 0.13278909 -0.18059637 -0.055450413
000330 78 22 fb 3c 06 db 7e 3d 9a e3 05 be 40 30 55 3e
       0.030656084 0.062220596 -0.13075104 0.20819187
000340 62 1d 6a be 7c fa 1a be 5e 03 95 3d e3 0b b9 bd
       -0.22862771 -0.15134615 0.07276033 -0.0903547
000350 8d 6b fa bc 9b 50 18 3e d6 51 f7 bc a5 77 82 3c
       -0.030568862 0.14874499 -0.03019039 0.015926192
000360 89 da 0a 3e ce 1c 8b 3c fc 01 24 3b ff 41 9a bb
       0.13559927 0.016981509 0.0025025597 -0.0047075744
000370 6a 35 01 3e ef 4f 0e be 57 3f f1 bc 57 cf d4 3d
       0.12618032 -0.1389768 -0.029449148 0.103911094
000380 4f 86 be bc 2d 09 f0 bc 4c ed c7 3d 38 2d 05 be
       -0.023257403 -0.02930125 0.09762058 -0.13005531
000390 53 69 1a be 1e b3 d7 bd 4d 99 59 bd 12 10 33 3e
       -0.1507924 -0.10532211 -0.053124715 0.17486599
0003a0 0e e2 38 3b 08 d0 35 3e 4c 6f 19 be a0 0e 98 bd
       0.002821091 0.17755139 -0.14983863 -0.074246645
0003b0 b1 5a b0 3d c1 e6 6b bc b5 ab 8d 3e eb 44 f9 3d
       0.08611048 -0.014398278 0.27670065 0.12171348
0003c0 b8 c4 76 3d 55 6f 38 3d a8 b5 19 be 83 11 9a 3d
       0.0602462 0.04502805 -0.15010703 0.07522871
0003d0 42 30 7c bd 83 3a c8 3e 97 01 01 be 2a 2d 56 3e
       -0.06156946 0.3910714 -0.12598263 0.20915666
0003e0 44 0b f8 bd 44 d9 9a 3e 61 fe c1 3e 00 e6 13 be
       -0.12111524 0.30243886 0.37889388 -0.14443207
0003f0 10 f9 b2 bd 47 67 3f 3e 2a fd 19 3e 9b fa 25 be
       -0.08738911 0.18691741 0.1503798 -0.1620888

l2.bias f4 [128]
000000 9d d3 94 bd 86 33 b8 3a eb 5b 3e 3d 9e 2e f8 bd
       -0.072669245 0.0014053441 0.04647438 -0.121182665
000010 fa 4b 06 3d c9 2b ac bd 8e 76 40 bc 7c 8e 04 be
       0.0327873 -0.08406789 -0.011747016 -0.12944978
000020 f0 96 16 3d 37 24 4c 3d fb cc df bb 07 db a2 bc
       0.03676504 0.049839225 -0.0068298555 -0.019879831
000030 fd ea e9 bb ed 53 26 3c b4 f2 43 3b c1 e1 20 3d
       -0.0071386085 0.010151845 0.00298993 0.039277796
000040 c8 12 ae bd c1 38 ec bc 84 1c 26 3e 3b 2c c8 bc
       -0.08499676 -0.028835656 0.16221815 -0.024435153
000050 63 52 82 3d 6f 2f 05 bd 74 df 8c 3d a9 54 d6 bd
       0.0636337 -0.03251594 0.06878558 -0.104653664
000060 bc f0 95 bd 02 60 04 be 90 c2 35 3d de ce 69 bd
       -0.07321307 -0.12927249 0.044375002 -0.05708205
000070 65 48 80 bd 99 8d 12 3c f0 f7 90 bc 37 23 e2 bd
       -0.06263808 0.008944892 -0.01769635 -0.11041873
000080 c1 81 70 3d 4f 0c b4 3d a1 d4 81 bd 01 a6 bd bd
       0.058717493 0.0879141 -0.06339384 -0.09260178
000090 b7 8d e9 bd 23 0a 16 be 2c 6e cd bd db fe ac bd
       -0.11403983 -0.14652304 -0.10030779 -0.08447047
0000a0 0e bb 94 bc dc 0b 04 3a 10 10 4f 3d 4a 53 a5 3c
       -0.0181556 0.00050371676 0.050552428 0.020181317
0000b0 57 92 c2 3d 6a 48 af bd bd 97 da 3d 39 1b 84 bb
       0.09500568 -0.08558734 0.10673473 -0.0040315655
0000c0 08 6c a1 bd b2 12 47 bd 8c 57 c2 bd 47 94 f9 bc
       -0.078819335 -0.048601814 -0.094893545 -0.030466212
0000d0 a3 00 58 3d 34 8a c8 bb 66 ac 8a bd 2c 76 11 be
       0.052734982 -0.0061199907 -0.06771164 -0.14205235
0000e0 f7 a5 49 3d 64 d3 7e 3d 9e 80 f6 bd c9 6d 84 3b
       0.049230542 0.062213317 -0.120362505 0.0040414077
0000f0 c7 c7 35 be f8 b6 2a be b9 2f 8f 3d 3f 90 82 3c
       -0.1775199 -0.1667136 0.06991524 0.015937923
000100 df 45 8f 3d 15 dd 1c bd c0 94 8e 3d 6c 75 e7 bd
       0.06995749 -0.038296778 0.069619656 -0.11301693
000110 f3 f6 7f bd 1c 78 1d bc 20 7f ab 3c bc 7d d3 3c
       -0.06249137 -0.009611156 0.020934641 0.02581679
000120 45 43 3c be 9b 0a 41 be 5b 55 76 bd b5 52 68 bd
       -0.18385036 -0.18851702 -0.060139995 -0.0567195
000130 60 a9 b7 bc 1c 76 ff bd 2b 7d e2 bd 74 08 96 bd
       -0.022419631 -0.124736995 -0.1105903 -0.07325831
000140 02 d0 8a bd 66 a3 f9 bc a6 a6 b4 bd 84 3c 9b 3e
       -0.067779556 -0.030473422 -0.08820848 0.30319607
000150 a0 66 d2 3d b0 42 e1 bd 1e 1f 1d be 67 77 20 be
       0.102734804 -0.10999048 -0.15343902 -0.15670548
000160 39 67 cb 3d 5e e0 8c 3c 57 f1 3f be 9b ce b9 3d
       0.099317975 0.01719683 -0.18744408 0.0907261
000170 7a 69 e0 bc 7b 27 61 3c 7a c3 82 3d fd 56 de bd
       -0.027394045 0.013742323 0.063849404 -0.108564354
000180 46 6d d5 bd ba 48 ea bc b2 8c 0a bd 91 6f 46 be
       -0.10421233 -0.028599132 -0.033825584 -0.19378497
000190 f6 dc db bd b5 7c db bc 97 2e b0 3c ec 04 39 3d
       -0.10735504 -0.026792863 0.02150659 0.04517071
0001a0 26 52 90 bc 01 1f 72 3d c8 96 d2 bd bc 41 2b be
       -0.017617296 0.0591116 -0.102826655 -0.16724294
0001b0 8e e9 d2 3d 3b 69 92 bd 3e a0 03 be 0d b7 16 be
       0.10298453 -0.07148977 -0.12854096 -0.14718266
0001c0 84 66 57 bd 5c 64 eb 3e ad c2 69 bd dd 74 35 3c
       -0.052588 0.45975006 -0.057070423 0.011075226
0001d0 11 85 13 bd c2 8a f2 bc fc 17 62 bc 2d 00 9e bd
       -0.036015574 -0.02960718 -0.013799664 -0.07714877
0001e0 71 fe 3c bd 52 f6 8e bd e6 85 43 be 0e 30 ce bd
       -0.04614109 -0.069805756 -0.19094047 -0.100677595
0001f0 85 5e 64 bd 10 d2 9d 3d 01 b9 40 be 29 06 fa 3c
       -0.055754203 0.07706082 -0.18820573 0.030520516

l3.weight f4 [28, 128]
000000 f1 7b 8c bd d7 c8 30 3d 11 3e c9 bd 53 85 af 3e
       -0.068595774 0.043160286 -0.09826291 0.34281406
000010 d2 42 48 be 34 66 b1 bd 3c ed 46 3e 7f 97 c2 be
       -0.1955674 -0.08662072 0.19426435 -0.38006207
000020 3f 54 70 be c8 0b 1e 3e 09 13 ec bc 04 5b 96 3d
       -0.23469637 0.15434182 -0.02881767 0.073415786
000030 6a 14 15 c0 e0 8f 42 3e 32 3f 70 bd c3 b0 a2 3e
       -2.329371 0.19000196 -0.058654018 0.31775483
000040 9a 45 8b bd 46 cb 73 be b2 bc a7 bf 03 8c e7 be
       -0.06800385 -0.23808011 -1.310446 -0.45224008
000050 d7 ae c0 3d d5 8b 13 bf a1 79 a3 bf 8e 93 3c 3e
       0.09408348 -0.5763524 -1.2771493 0.18415663
000060 b9 77 96 3d ba 3e 14 bf ce da 37 bf 02 9a 63 3e
       0.07347054 -0.57908213 -0.71818244 0.22226718
000070 1f 83 12 bf df f0 72 3e 30 7c 81 be 8c 66 c0 be
       -0.57231325 0.23724698 -0.2529006 -0.37578237
000080 97 1e 82 bf 7d dc 96 bf b4 33 43 3e 6d 35 17 3d
       -1.0165585 -1.1786038 0.19062692 0.036916185
000090 73 eb 2a 3d a8 41 0a 3e 4d 57 1e be 1f b1 a0 bf
       0.041728448 0.13501608 -0.1546299 -1.2554053
0000a0 7d 1f 3b bd 9d 73 50 bd 69 98 54 3e a1 d1 4d 3d
       -0.045684326 -0.050891507 0.20761265 0.050248746
0000b0 18 4a 66 3e 79 e3 18 3e 16 ac 3e bf 9f 70 bc bf
       0.22489202 0.14930524 -0.7448133 -1.4721869
0000c0 56 72 d4 ba c4 f7 43 3d dd 1b 1e 3d 4f 99 79 be
       -0.0016208391 0.04784371 0.03860079 -0.24374889
0000d0 0e b7 47 3d 2b f9 81 3d 9b 33 e2 bd 07 e7 57 be
       0.04875856 0.06346353 -0.11044999 -0.21084224
0000e0 8c 03 d7 3d 8e e4 8c 3e d1 22 32 bf e3 73 af 3d
       0.104987234 0.27518123 -0.69584376 0.085670255
0000f0 50 e6 b4 bd f9 46 30 3e 0b e0 37 c0 73 ba 49 be
       -0.08832991 0.17214574 -2.8730495 -0.19700031
000100 62 b9 4e be d4 2e d3 bc 9c d7 ca be 91 43 29 3e
       -0.20187905 -0.025779165 -0.39617622 0.16529681
000110 16 14 2a bf 4e 75 ef be 0e 04 7e bc 94 0c 8e bf
       -0.664369 -0.46769184 -0.015503896 -1.1097589
000120 8e 1e 8c 3d 40 92 b6 be 06 e6 b9 bc 67 9b f3 3d
       0.06841765 -0.35658455 -0.022692692 0.11894875
000130 8a cb 42 3e e2 86 56 be da 6a 79 3e 01 79 8a be
       0.19022956 -0.20949891 0.24357167 -0.27045444
000140 61 09 cb 3d 02 84 67 3d 04 2b f5 bc 91 f2 b7 bf
       0.09913898 0.056522377 -0.029927738 -1.43709
000150 fd 7d 63 3e fd df 99 bd 3a 11 f6 bd c0 26 eb 3e
       0.2221603 -0.075134255 -0.120150045 0.45928
000160 dc 5c 20 be 3f fa 07 c0 ba 6d 18 be e6 16 7a be
       -0.15660423 -2.1246488 -0.14885607 -0.24422798
000170 d2 68 0a bf a0 5e 2d bf a8 da e0 be 07 5d db bd
       -0.54066193 -0.6772251 -0.4391682 -0.10711103
000180 df 2c 4c be c3 23 1c 3d 53 22 a3 bf b2 c8 2b bf
       -0.19938992 0.038120043 -1.274485 -0.6710311
000190 e7 8b 54 bd 35 26 0c bf 37 bf 49 be da aa 1d bf
       -0.051891234 -0.547458 -0.19701849 -0.61588824
0001a0 5b 6e 94 3d be 41 92 bd 7f 0a a4 bd 25 42 6b be
       0.07247611 -0.071414456 -0.080098145 -0.22974451
0001b0 c7 14 5a 3e 09 0b 76 bf a7 2b df be bb 46 51 bf
       0.21296988 -0.9611059 -0.43587992 -0.8174855
0001c0 2a 97 36 3e cb 4a 6c c0 1a 81 f4 bf 78 47 05 be
       0.17831102 -3.692065 -1.9101899 -0.13015544
0001d0 66 48 fc bd 98 08 5e 3d eb 1b aa bf ef 75 2e bf
       -0.123184964 0.054207414 -1.328977 -0.681487
0001e0 1b 22 2e bf 7e a7 6c be c6 5a b5 be 11 0f e4 be
       -0.6802079 -0.23110768 -0.35420817 -0.44542745
0001f0 3c 7c 3b c0 9c 16 77 3e a2 42 3e be 25 b0 0d 3e
       -2.9294577 0.24129719 -0.18580106 0.13836725
000200 f8 d7 ab bd 7b 4e 45 bd 33 af fd be e8 f0 f4 3d
       -0.08390802 -0.048170548 -0.4954773 0.11960012
000210 45 eb 06 3c d3 c1 a5 be d9 2b 2b 3e d3 6f 74 be
       0.008234804 -0.3237444 0.16715945 -0.23870783
000220 f5 bc b6 be 08 a8 0f 3e c7 b2 db bd 37 63 b6 bb
       -0.35691038 0.14028943 -0.107274584 -0.0055660265
000230 ad d1 da bf d4 8c 3a bd 34 ba 64 bf 9c 48 54 3d
       -1.7095238 -0.04554446 -0.89346623 0.05182706
000240 f0 4f 08 3d f3 19 0e 3d 73 03 46 bf d6 05 31 3d
       0.03327936 0.034692716 -0.77349013 0.043218456
000250 de 40 38 3e 41 3a d2 be 9b cd 94 bf d9 94 18 bf
       0.17993495 -0.4106007 -1.1625246 -0.59602123
000260 86 42 16 bd df 20 1c be f7 44 a7 3c 53 41 3e bd
       -0.036684535 -0.15246914 0.020418627 -0.046449017
000270 c2 1d 1a bf 6b 98 4f be 2e bb cc 3d 7f 43 04 3e
       -0.60201657 -0.20272987 0.09996639 0.12916373
000280 36 66 dc 3c 53 cb db be c3 a1 0a 3e fb b0 e0 3d
       0.026904207 -0.42928562 0.1353827 0.10971256
000290 54 62 26 bf 86 c2 b7 be 46 0e 08 bd cf 7e 5f bf
       -0.64993787 -0.35890597 -0.033216737 -0.8730287
0002a0 a5 41 c1 be 60 e4 f8 3d 02 af 95 3d 0d 60 86 bb
       -0.37745395 0.12152934 0.07308771 -0.0041008056
0002b0 61 fb 78 3e d6 85 05 3e ef 1e 5d 3d e7 f8 34 bf
       0.24314643 0.13039336 0.05398458 -0.70692295
0002c0 d0 ff 9e be 9b 08 2d 3d b8 ad d5 bd a1 f9 fd 3d
       -0.31054544 0.042244535 -0.10433525 0.124011286
0002d0 4d ab c9 be 2a 27 3d bd 4f 0b 24 bf b1 c3 00 be
       -0.39388505 -0.046179928 -0.64079756 -0.1257465
0002e0 32 5e 76 3d 7d 7e 23 3e 74 3f 5e be ef ec a6 be
       0.060148425 0.1596622 -0.21703893 -0.3260264
0002f0 01 78 13 be ce a0 27 bd 41 be fe bf 9b 93 75 bd
       -0.14401247 -0.04092484 -1.9901811 -0.05995522
000300 ee 94 2d bc 34 98 0c 3e c3 dc cf be be c4 0b 3e
       -0.01059459 0.13729936 -0.40598115 0.1364927
000310 7c d7 15 bf 91 e8 d4 bf da 4b af bd 35 8e 03 bf
       -0.5853193 -1.6633474 -0.085593894 -0.51388866
000320 a5 e1 55 bd fd 32 01 3e 26 0d cf bb 64 63 7b bd
       -0.052217145 0.12617107 -0.006318706 -0.061374083
000330 24 f9 42 3d c9 4c 3d be be 84 f0 3c 40 fe 6c 3e
       0.04760088 -0.18486322 0.029360171 0.23143864
000340 3c 2a 06 3e 57 0e 55 bf ec b2 31 bd 38 1f fd be
       0.13102049 -0.83225006 -0.043383524 -0.4943788
000350 70 29 71 3e 08 35 71 bd f4 0f 61 be a6 09 e5 bf
       0.23550963 -0.058888465 -0.21978742 -1.789357
000360 75 12 3e 3e 91 00 a8 bf 09 f4 e1 be bc 12 76 be
       0.18561728 -1.3125173 -0.44131497 -0.24030584
000370 e6 41 d0 be 75 4b a0 bf ed 33 30 3d 7a 3f 49 be
       -0.40675277 -1.2523028 0.04301827 -0.1965312
000380 03 a7 a1 bc d8 a6 c6 3d 07 9a e3 be 31 57 19 bf
       -0.019732958 0.09699792 -0.4445345 -0.5989867
000390 40 e8 8c be 9c 74 d7 be 29 f9 a3 3d 3f ba b8 be
       -0.27520943 -0.42081153 0.08006508 -0.36079594
0003a0 d5 e5 f0 be 34 0a 88 be b8 28 c5 3c 22 c7 b3 bd
       -0.47050348 -0.26570284 0.024067268 -0.08778216
0003b0 7d f6 30 3e a2 f8 30 bf f8 32 e5 be 46 da 38 bf
       0.17281528 -0.69129384 -0.4476545 -0.7220806
0003c0 1d 4e f0 be e1 c5 88 c0 da 5e cb bf 04 3e 5c 3e
       -0.46934596 -4.274155 -1.5888321 0.21508032
0003d0 c7 c2 77 bf 42 e3 b0 be 9e 97 6d bf 25 8f 6c 3d
       -0.9678158 -0.34548384 -0.92809474 0.0577537
0003e0 2e 5c 80 be 96 b6 a4 ba 39 46 05 be 48 84 fb be
       -0.25070328 -0.0012566622 -0.13015069 -0.4912436
0003f0 20 1c 36 bf 83 bd 84 3e 18 10 ce be 99 f5 aa be
       -0.71136665 0.25925836 -0.40246654 -0.333905

l3.bias f4 [28]
000000 cf eb 81 c0 07 70 f1 bf 62 4f 30 3d bd 28 96 bf
       -4.060035 -1.8862313 0.043044455 -1.1731182
000010 8c dd 9c c0 75 69 5c bf 0b 8e 95 bf 4a aa 0a c0
       -4.9020443 -0.86098415 -1.1683973 -2.1666436
000020 2b 55 7e c0 5b b6 17 c0 5b 4e cc bf 01 2f 74 c0
       -3.9739482 -2.370505 -1.5961412 -3.815369
000030 d9 84 24 bd b5 70 19 c0 28 46 39 c0 d5 96 83 c0
       -0.040165756 -2.397504 -2.894907 -4.112162
000040 68 6e 8f c0 05 b7 66 bd ea 0d 02 c0 bd 11 33 c0
       -4.4822273 -0.056326885 -2.0320992 -2.7979577
000050 f3 98 3d c0 53 fe cb bf 0c 08 35 c0 04 f9 d5 bf
       -2.9624603 -1.5936989 -2.8286161 -1.6716619
000060 ed 13 48 c0 40 d3 9a bd af a7 38 c0 e9 94 87 bf
       -3.1262162 -0.07559824 -2.8852346 -1.0592319
